<?xml version="1.0"?>
<net name="Model0" version="11">
	<layers>
		<layer id="0" name="x" type="Parameter" version="opset1">
			<data shape="1,3,518,518" element_type="f32" />
			<output>
				<port id="0" precision="FP32" names="x">
					<dim>1</dim>
					<dim>3</dim>
					<dim>518</dim>
					<dim>518</dim>
				</port>
			</output>
		</layer>
		<layer id="1" name="aten::expand/Broadcast_compressed" type="Const" version="opset1">
			<data element_type="f16" shape="1, 1, 384" offset="0" size="768" />
			<output>
				<port id="0" precision="FP16" names="64">
					<dim>1</dim>
					<dim>1</dim>
					<dim>384</dim>
				</port>
			</output>
		</layer>
		<layer id="2" name="aten::expand/Broadcast" type="Convert" version="opset1">
			<data destination_type="f32" />
			<rt_info>
				<attribute name="decompression" version="0" />
			</rt_info>
			<input>
				<port id="0" precision="FP16">
					<dim>1</dim>
					<dim>1</dim>
					<dim>384</dim>
				</port>
			</input>
			<output>
				<port id="1" precision="FP32">
					<dim>1</dim>
					<dim>1</dim>
					<dim>384</dim>
				</port>
			</output>
		</layer>
		<layer id="3" name="x/fq_output_0/input_low" type="Const" version="opset1">
			<data element_type="f32" shape="" offset="768" size="4" />
			<output>
				<port id="0" precision="FP32" />
			</output>
		</layer>
		<layer id="4" name="x/fq_output_0/input_high" type="Const" version="opset1">
			<data element_type="f32" shape="" offset="772" size="4" />
			<output>
				<port id="0" precision="FP32" />
			</output>
		</layer>
		<layer id="5" name="x/fq_output_0/output_low" type="Const" version="opset1">
			<data element_type="f32" shape="" offset="768" size="4" />
			<output>
				<port id="0" precision="FP32" />
			</output>
		</layer>
		<layer id="6" name="x/fq_output_0/output_high" type="Const" version="opset1">
			<data element_type="f32" shape="" offset="772" size="4" />
			<output>
				<port id="0" precision="FP32" />
			</output>
		</layer>
		<layer id="7" name="x/fq_output_0" type="FakeQuantize" version="opset1">
			<data levels="256" auto_broadcast="numpy" />
			<input>
				<port id="0" precision="FP32">
					<dim>1</dim>
					<dim>3</dim>
					<dim>518</dim>
					<dim>518</dim>
				</port>
				<port id="1" precision="FP32" />
				<port id="2" precision="FP32" />
				<port id="3" precision="FP32" />
				<port id="4" precision="FP32" />
			</input>
			<output>
				<port id="5" precision="FP32">
					<dim>1</dim>
					<dim>3</dim>
					<dim>518</dim>
					<dim>518</dim>
				</port>
			</output>
		</layer>
		<layer id="8" name="Constant_546449" type="Const" version="opset1">
			<data element_type="i8" shape="384, 3, 14, 14" offset="776" size="225792" />
			<output>
				<port id="0" precision="I8">
					<dim>384</dim>
					<dim>3</dim>
					<dim>14</dim>
					<dim>14</dim>
				</port>
			</output>
		</layer>
		<layer id="9" name="Convert_546450" type="Convert" version="opset1">
			<data destination_type="f32" />
			<input>
				<port id="0" precision="I8">
					<dim>384</dim>
					<dim>3</dim>
					<dim>14</dim>
					<dim>14</dim>
				</port>
			</input>
			<output>
				<port id="1" precision="FP32">
					<dim>384</dim>
					<dim>3</dim>
					<dim>14</dim>
					<dim>14</dim>
				</port>
			</output>
		</layer>
		<layer id="10" name="Constant_546451" type="Const" version="opset1">
			<data element_type="f32" shape="384, 1, 1, 1" offset="226568" size="1536" />
			<output>
				<port id="0" precision="FP32">
					<dim>384</dim>
					<dim>1</dim>
					<dim>1</dim>
					<dim>1</dim>
				</port>
			</output>
		</layer>
		<layer id="11" name="__module.pretrained.patch_embed.proj/aten::_convolution/Convolution/fq_weights_1" type="Multiply" version="opset1">
			<data auto_broadcast="numpy" />
			<input>
				<port id="0" precision="FP32">
					<dim>384</dim>
					<dim>3</dim>
					<dim>14</dim>
					<dim>14</dim>
				</port>
				<port id="1" precision="FP32">
					<dim>384</dim>
					<dim>1</dim>
					<dim>1</dim>
					<dim>1</dim>
				</port>
			</input>
			<output>
				<port id="2" precision="FP32">
					<dim>384</dim>
					<dim>3</dim>
					<dim>14</dim>
					<dim>14</dim>
				</port>
			</output>
		</layer>
		<layer id="12" name="__module.pretrained.patch_embed.proj/aten::_convolution/Convolution" type="Convolution" version="opset1">
			<data strides="14, 14" dilations="1, 1" pads_begin="0, 0" pads_end="0, 0" auto_pad="explicit" />
			<input>
				<port id="0" precision="FP32">
					<dim>1</dim>
					<dim>3</dim>
					<dim>518</dim>
					<dim>518</dim>
				</port>
				<port id="1" precision="FP32">
					<dim>384</dim>
					<dim>3</dim>
					<dim>14</dim>
					<dim>14</dim>
				</port>
			</input>
			<output>
				<port id="2" precision="FP32">
					<dim>1</dim>
					<dim>384</dim>
					<dim>37</dim>
					<dim>37</dim>
				</port>
			</output>
		</layer>
		<layer id="13" name="__module.pretrained.patch_embed.proj/aten::_convolution/Reshape_compressed" type="Const" version="opset1">
			<data element_type="f16" shape="1, 384, 1, 1" offset="228104" size="768" />
			<output>
				<port id="0" precision="FP16">
					<dim>1</dim>
					<dim>384</dim>
					<dim>1</dim>
					<dim>1</dim>
				</port>
			</output>
		</layer>
		<layer id="14" name="__module.pretrained.patch_embed.proj/aten::_convolution/Reshape" type="Convert" version="opset1">
			<data destination_type="f32" />
			<rt_info>
				<attribute name="decompression" version="0" />
			</rt_info>
			<input>
				<port id="0" precision="FP16">
					<dim>1</dim>
					<dim>384</dim>
					<dim>1</dim>
					<dim>1</dim>
				</port>
			</input>
			<output>
				<port id="1" precision="FP32">
					<dim>1</dim>
					<dim>384</dim>
					<dim>1</dim>
					<dim>1</dim>
				</port>
			</output>
		</layer>
		<layer id="15" name="__module.pretrained.patch_embed.proj/aten::_convolution/Add" type="Add" version="opset1">
			<data auto_broadcast="numpy" />
			<input>
				<port id="0" precision="FP32">
					<dim>1</dim>
					<dim>384</dim>
					<dim>37</dim>
					<dim>37</dim>
				</port>
				<port id="1" precision="FP32">
					<dim>1</dim>
					<dim>384</dim>
					<dim>1</dim>
					<dim>1</dim>
				</port>
			</input>
			<output>
				<port id="2" precision="FP32" names="162,x.3">
					<dim>1</dim>
					<dim>384</dim>
					<dim>37</dim>
					<dim>37</dim>
				</port>
			</output>
		</layer>
		<layer id="16" name="__module.pretrained.patch_embed/aten::flatten/Concat" type="Const" version="opset1">
			<data element_type="i32" shape="3" offset="228872" size="12" />
			<rt_info>
				<attribute name="precise" version="0" />
			</rt_info>
			<output>
				<port id="0" precision="I32">
					<dim>3</dim>
				</port>
			</output>
		</layer>
		<layer id="17" name="__module.pretrained.patch_embed/aten::flatten/Reshape" type="Reshape" version="opset1">
			<data special_zero="true" />
			<input>
				<port id="0" precision="FP32">
					<dim>1</dim>
					<dim>384</dim>
					<dim>37</dim>
					<dim>37</dim>
				</port>
				<port id="1" precision="I32">
					<dim>3</dim>
				</port>
			</input>
			<output>
				<port id="2" precision="FP32" names="163">
					<dim>1</dim>
					<dim>384</dim>
					<dim>1369</dim>
				</port>
			</output>
		</layer>
		<layer id="18" name="__module.pretrained.patch_embed/aten::transpose/ScatterElementsUpdate" type="Const" version="opset1">
			<data element_type="i32" shape="3" offset="228884" size="12" />
			<output>
				<port id="0" precision="I32">
					<dim>3</dim>
				</port>
			</output>
		</layer>
		<layer id="19" name="__module.pretrained.patch_embed/aten::transpose/Transpose" type="Transpose" version="opset1">
			<input>
				<port id="0" precision="FP32">
					<dim>1</dim>
					<dim>384</dim>
					<dim>1369</dim>
				</port>
				<port id="1" precision="I32">
					<dim>3</dim>
				</port>
			</input>
			<output>
				<port id="2" precision="FP32" names="164,x.5">
					<dim>1</dim>
					<dim>1369</dim>
					<dim>384</dim>
				</port>
			</output>
		</layer>
		<layer id="20" name="aten::cat/Concat" type="Concat" version="opset1">
			<data axis="1" />
			<input>
				<port id="0" precision="FP32">
					<dim>1</dim>
					<dim>1</dim>
					<dim>384</dim>
				</port>
				<port id="1" precision="FP32">
					<dim>1</dim>
					<dim>1369</dim>
					<dim>384</dim>
				</port>
			</input>
			<output>
				<port id="2" precision="FP32" names="67,x.7">
					<dim>1</dim>
					<dim>1370</dim>
					<dim>384</dim>
				</port>
			</output>
		</layer>
		<layer id="21" name="aten::add/Multiply_compressed" type="Const" version="opset1">
			<data element_type="f16" shape="1, 1370, 384" offset="228896" size="1052160" />
			<output>
				<port id="0" precision="FP16">
					<dim>1</dim>
					<dim>1370</dim>
					<dim>384</dim>
				</port>
			</output>
		</layer>
		<layer id="22" name="aten::add/Multiply" type="Convert" version="opset1">
			<data destination_type="f32" />
			<rt_info>
				<attribute name="decompression" version="0" />
			</rt_info>
			<input>
				<port id="0" precision="FP16">
					<dim>1</dim>
					<dim>1370</dim>
					<dim>384</dim>
				</port>
			</input>
			<output>
				<port id="1" precision="FP32">
					<dim>1</dim>
					<dim>1370</dim>
					<dim>384</dim>
				</port>
			</output>
		</layer>
		<layer id="23" name="aten::add/Add" type="Add" version="opset1">
			<data auto_broadcast="numpy" />
			<input>
				<port id="0" precision="FP32">
					<dim>1</dim>
					<dim>1370</dim>
					<dim>384</dim>
				</port>
				<port id="1" precision="FP32">
					<dim>1</dim>
					<dim>1370</dim>
					<dim>384</dim>
				</port>
			</input>
			<output>
				<port id="2" precision="FP32" names="69,input.1">
					<dim>1</dim>
					<dim>1370</dim>
					<dim>384</dim>
				</port>
			</output>
		</layer>
		<layer id="24" name="__module.pretrained.blocks.0.norm1/aten::layer_norm/Constant" type="Const" version="opset1">
			<data element_type="i32" shape="1" offset="1281056" size="4" />
			<output>
				<port id="0" precision="I32">
					<dim>1</dim>
				</port>
			</output>
		</layer>
		<layer id="25" name="__module.pretrained.blocks.0.norm1/aten::layer_norm/MVN" type="MVN" version="opset6">
			<data eps="9.9999999747524271e-07" normalize_variance="true" eps_mode="INSIDE_SQRT" />
			<input>
				<port id="0" precision="FP32">
					<dim>1</dim>
					<dim>1370</dim>
					<dim>384</dim>
				</port>
				<port id="1" precision="I32">
					<dim>1</dim>
				</port>
			</input>
			<output>
				<port id="2" precision="FP32">
					<dim>1</dim>
					<dim>1370</dim>
					<dim>384</dim>
				</port>
			</output>
		</layer>
		<layer id="26" name="Constant_15347_compressed" type="Const" version="opset1">
			<data element_type="f16" shape="1, 1, 384" offset="1281060" size="768" />
			<output>
				<port id="0" precision="FP16">
					<dim>1</dim>
					<dim>1</dim>
					<dim>384</dim>
				</port>
			</output>
		</layer>
		<layer id="27" name="Constant_15347" type="Convert" version="opset1">
			<data destination_type="f32" />
			<rt_info>
				<attribute name="decompression" version="0" />
			</rt_info>
			<input>
				<port id="0" precision="FP16">
					<dim>1</dim>
					<dim>1</dim>
					<dim>384</dim>
				</port>
			</input>
			<output>
				<port id="1" precision="FP32">
					<dim>1</dim>
					<dim>1</dim>
					<dim>384</dim>
				</port>
			</output>
		</layer>
		<layer id="28" name="__module.pretrained.blocks.0.norm1/aten::layer_norm/Multiply" type="Multiply" version="opset1">
			<data auto_broadcast="numpy" />
			<input>
				<port id="0" precision="FP32">
					<dim>1</dim>
					<dim>1370</dim>
					<dim>384</dim>
				</port>
				<port id="1" precision="FP32">
					<dim>1</dim>
					<dim>1</dim>
					<dim>384</dim>
				</port>
			</input>
			<output>
				<port id="2" precision="FP32">
					<dim>1</dim>
					<dim>1370</dim>
					<dim>384</dim>
				</port>
			</output>
		</layer>
		<layer id="29" name="Constant_15348_compressed" type="Const" version="opset1">
			<data element_type="f16" shape="1, 1, 384" offset="1281828" size="768" />
			<output>
				<port id="0" precision="FP16">
					<dim>1</dim>
					<dim>1</dim>
					<dim>384</dim>
				</port>
			</output>
		</layer>
		<layer id="30" name="Constant_15348" type="Convert" version="opset1">
			<data destination_type="f32" />
			<rt_info>
				<attribute name="decompression" version="0" />
			</rt_info>
			<input>
				<port id="0" precision="FP16">
					<dim>1</dim>
					<dim>1</dim>
					<dim>384</dim>
				</port>
			</input>
			<output>
				<port id="1" precision="FP32">
					<dim>1</dim>
					<dim>1</dim>
					<dim>384</dim>
				</port>
			</output>
		</layer>
		<layer id="31" name="__module.pretrained.blocks.0.norm1/aten::layer_norm/Add" type="Add" version="opset1">
			<data auto_broadcast="numpy" />
			<input>
				<port id="0" precision="FP32">
					<dim>1</dim>
					<dim>1370</dim>
					<dim>384</dim>
				</port>
				<port id="1" precision="FP32">
					<dim>1</dim>
					<dim>1</dim>
					<dim>384</dim>
				</port>
			</input>
			<output>
				<port id="2" precision="FP32" names="191,x.9">
					<dim>1</dim>
					<dim>1370</dim>
					<dim>384</dim>
				</port>
			</output>
		</layer>
		<layer id="32" name="__module.pretrained.blocks.0.norm1/aten::layer_norm/Add_0_0/nncf_smooth_quant/scale" type="Const" version="opset1">
			<data element_type="f32" shape="1, 1, 384" offset="1282596" size="1536" />
			<output>
				<port id="0" precision="FP32">
					<dim>1</dim>
					<dim>1</dim>
					<dim>384</dim>
				</port>
			</output>
		</layer>
		<layer id="33" name="__module.pretrained.blocks.0.norm1/aten::layer_norm/Add_0_0/nncf_smooth_quant" type="Multiply" version="opset1">
			<data auto_broadcast="numpy" />
			<input>
				<port id="0" precision="FP32">
					<dim>1</dim>
					<dim>1370</dim>
					<dim>384</dim>
				</port>
				<port id="1" precision="FP32">
					<dim>1</dim>
					<dim>1</dim>
					<dim>384</dim>
				</port>
			</input>
			<output>
				<port id="2" precision="FP32">
					<dim>1</dim>
					<dim>1370</dim>
					<dim>384</dim>
				</port>
			</output>
		</layer>
		<layer id="34" name="__module.pretrained.blocks.0.norm1/aten::layer_norm/Add_0_0/nncf_smooth_quant/fq_output_0/input_low" type="Const" version="opset1">
			<data element_type="f32" shape="" offset="1284132" size="4" />
			<output>
				<port id="0" precision="FP32" />
			</output>
		</layer>
		<layer id="35" name="__module.pretrained.blocks.0.norm1/aten::layer_norm/Add_0_0/nncf_smooth_quant/fq_output_0/input_high" type="Const" version="opset1">
			<data element_type="f32" shape="" offset="1284136" size="4" />
			<output>
				<port id="0" precision="FP32" />
			</output>
		</layer>
		<layer id="36" name="__module.pretrained.blocks.0.norm1/aten::layer_norm/Add_0_0/nncf_smooth_quant/fq_output_0/output_low" type="Const" version="opset1">
			<data element_type="f32" shape="" offset="1284132" size="4" />
			<output>
				<port id="0" precision="FP32" />
			</output>
		</layer>
		<layer id="37" name="__module.pretrained.blocks.0.norm1/aten::layer_norm/Add_0_0/nncf_smooth_quant/fq_output_0/output_high" type="Const" version="opset1">
			<data element_type="f32" shape="" offset="1284136" size="4" />
			<output>
				<port id="0" precision="FP32" />
			</output>
		</layer>
		<layer id="38" name="__module.pretrained.blocks.0.norm1/aten::layer_norm/Add_0_0/nncf_smooth_quant/fq_output_0" type="FakeQuantize" version="opset1">
			<data levels="256" auto_broadcast="numpy" />
			<input>
				<port id="0" precision="FP32">
					<dim>1</dim>
					<dim>1370</dim>
					<dim>384</dim>
				</port>
				<port id="1" precision="FP32" />
				<port id="2" precision="FP32" />
				<port id="3" precision="FP32" />
				<port id="4" precision="FP32" />
			</input>
			<output>
				<port id="5" precision="FP32">
					<dim>1</dim>
					<dim>1370</dim>
					<dim>384</dim>
				</port>
			</output>
		</layer>
		<layer id="39" name="Constant_546454" type="Const" version="opset1">
			<data element_type="i8" shape="1152, 384" offset="1284140" size="442368" />
			<output>
				<port id="0" precision="I8">
					<dim>1152</dim>
					<dim>384</dim>
				</port>
			</output>
		</layer>
		<layer id="40" name="Convert_546455" type="Convert" version="opset1">
			<data destination_type="f32" />
			<input>
				<port id="0" precision="I8">
					<dim>1152</dim>
					<dim>384</dim>
				</port>
			</input>
			<output>
				<port id="1" precision="FP32">
					<dim>1152</dim>
					<dim>384</dim>
				</port>
			</output>
		</layer>
		<layer id="41" name="Constant_546456" type="Const" version="opset1">
			<data element_type="f32" shape="1152, 1" offset="1726508" size="4608" />
			<output>
				<port id="0" precision="FP32">
					<dim>1152</dim>
					<dim>1</dim>
				</port>
			</output>
		</layer>
		<layer id="42" name="__module.pretrained.blocks.0.attn.qkv/aten::linear/MatMul/fq_weights_1" type="Multiply" version="opset1">
			<data auto_broadcast="numpy" />
			<input>
				<port id="0" precision="FP32">
					<dim>1152</dim>
					<dim>384</dim>
				</port>
				<port id="1" precision="FP32">
					<dim>1152</dim>
					<dim>1</dim>
				</port>
			</input>
			<output>
				<port id="2" precision="FP32">
					<dim>1152</dim>
					<dim>384</dim>
				</port>
			</output>
		</layer>
		<layer id="43" name="__module.pretrained.blocks.0.attn.qkv/aten::linear/MatMul" type="MatMul" version="opset1">
			<data transpose_a="false" transpose_b="true" />
			<input>
				<port id="0" precision="FP32">
					<dim>1</dim>
					<dim>1370</dim>
					<dim>384</dim>
				</port>
				<port id="1" precision="FP32">
					<dim>1152</dim>
					<dim>384</dim>
				</port>
			</input>
			<output>
				<port id="2" precision="FP32">
					<dim>1</dim>
					<dim>1370</dim>
					<dim>1152</dim>
				</port>
			</output>
		</layer>
		<layer id="44" name="Constant_15349_compressed" type="Const" version="opset1">
			<data element_type="f16" shape="1, 1, 1152" offset="1731116" size="2304" />
			<output>
				<port id="0" precision="FP16">
					<dim>1</dim>
					<dim>1</dim>
					<dim>1152</dim>
				</port>
			</output>
		</layer>
		<layer id="45" name="Constant_15349" type="Convert" version="opset1">
			<data destination_type="f32" />
			<rt_info>
				<attribute name="decompression" version="0" />
			</rt_info>
			<input>
				<port id="0" precision="FP16">
					<dim>1</dim>
					<dim>1</dim>
					<dim>1152</dim>
				</port>
			</input>
			<output>
				<port id="1" precision="FP32">
					<dim>1</dim>
					<dim>1</dim>
					<dim>1152</dim>
				</port>
			</output>
		</layer>
		<layer id="46" name="__module.pretrained.blocks.0.attn.qkv/aten::linear/Add" type="Add" version="opset1">
			<data auto_broadcast="numpy" />
			<input>
				<port id="0" precision="FP32">
					<dim>1</dim>
					<dim>1370</dim>
					<dim>1152</dim>
				</port>
				<port id="1" precision="FP32">
					<dim>1</dim>
					<dim>1</dim>
					<dim>1152</dim>
				</port>
			</input>
			<output>
				<port id="2" precision="FP32" names="200">
					<dim>1</dim>
					<dim>1370</dim>
					<dim>1152</dim>
				</port>
			</output>
		</layer>
		<layer id="47" name="__module.pretrained.blocks.0.attn/prim::ListConstruct/Concat" type="Const" version="opset1">
			<data element_type="i64" shape="5" offset="1733420" size="40" />
			<rt_info>
				<attribute name="precise" version="0" />
			</rt_info>
			<output>
				<port id="0" precision="I64" names="203">
					<dim>5</dim>
				</port>
			</output>
		</layer>
		<layer id="48" name="__module.pretrained.blocks.0.attn/aten::reshape/Reshape" type="Reshape" version="opset1">
			<data special_zero="false" />
			<input>
				<port id="0" precision="FP32">
					<dim>1</dim>
					<dim>1370</dim>
					<dim>1152</dim>
				</port>
				<port id="1" precision="I64">
					<dim>5</dim>
				</port>
			</input>
			<output>
				<port id="2" precision="FP32" names="204">
					<dim>1</dim>
					<dim>1370</dim>
					<dim>3</dim>
					<dim>6</dim>
					<dim>64</dim>
				</port>
			</output>
		</layer>
		<layer id="49" name="Constant_339" type="Const" version="opset1">
			<data element_type="i64" shape="5" offset="1733460" size="40" />
			<output>
				<port id="0" precision="I64" names="205">
					<dim>5</dim>
				</port>
			</output>
		</layer>
		<layer id="50" name="__module.pretrained.blocks.0.attn/aten::permute/Transpose" type="Transpose" version="opset1">
			<input>
				<port id="0" precision="FP32">
					<dim>1</dim>
					<dim>1370</dim>
					<dim>3</dim>
					<dim>6</dim>
					<dim>64</dim>
				</port>
				<port id="1" precision="I64">
					<dim>5</dim>
				</port>
			</input>
			<output>
				<port id="2" precision="FP32" names="206,qkv.1">
					<dim>3</dim>
					<dim>1</dim>
					<dim>6</dim>
					<dim>1370</dim>
					<dim>64</dim>
				</port>
			</output>
		</layer>
		<layer id="51" name="166" type="Const" version="opset1">
			<data element_type="i64" shape="" offset="1733500" size="8" />
			<output>
				<port id="0" precision="I64" names="166" />
			</output>
		</layer>
		<layer id="52" name="__module.pretrained.blocks.0.attn/aten::select/Gather" type="Gather" version="opset8">
			<data batch_dims="0" />
			<input>
				<port id="0" precision="FP32">
					<dim>3</dim>
					<dim>1</dim>
					<dim>6</dim>
					<dim>1370</dim>
					<dim>64</dim>
				</port>
				<port id="1" precision="I64" />
				<port id="2" precision="I64" />
			</input>
			<output>
				<port id="3" precision="FP32" names="207">
					<dim>1</dim>
					<dim>6</dim>
					<dim>1370</dim>
					<dim>64</dim>
				</port>
			</output>
		</layer>
		<layer id="53" name="Constant_15350_compressed" type="Const" version="opset1">
			<data element_type="f16" shape="1, 1, 1, 1" offset="1733508" size="2" />
			<output>
				<port id="0" precision="FP16">
					<dim>1</dim>
					<dim>1</dim>
					<dim>1</dim>
					<dim>1</dim>
				</port>
			</output>
		</layer>
		<layer id="54" name="Constant_15350" type="Convert" version="opset1">
			<data destination_type="f32" />
			<rt_info>
				<attribute name="decompression" version="0" />
			</rt_info>
			<input>
				<port id="0" precision="FP16">
					<dim>1</dim>
					<dim>1</dim>
					<dim>1</dim>
					<dim>1</dim>
				</port>
			</input>
			<output>
				<port id="1" precision="FP32">
					<dim>1</dim>
					<dim>1</dim>
					<dim>1</dim>
					<dim>1</dim>
				</port>
			</output>
		</layer>
		<layer id="55" name="__module.pretrained.blocks.0.attn/aten::mul/Multiply" type="Multiply" version="opset1">
			<data auto_broadcast="numpy" />
			<input>
				<port id="0" precision="FP32">
					<dim>1</dim>
					<dim>6</dim>
					<dim>1370</dim>
					<dim>64</dim>
				</port>
				<port id="1" precision="FP32">
					<dim>1</dim>
					<dim>1</dim>
					<dim>1</dim>
					<dim>1</dim>
				</port>
			</input>
			<output>
				<port id="2" precision="FP32" names="208,q.1">
					<dim>1</dim>
					<dim>6</dim>
					<dim>1370</dim>
					<dim>64</dim>
				</port>
			</output>
		</layer>
		<layer id="56" name="__module.pretrained.blocks.0.attn/aten::mul/Multiply/fq_output_0/input_low" type="Const" version="opset1">
			<data element_type="f32" shape="" offset="1733510" size="4" />
			<output>
				<port id="0" precision="FP32" />
			</output>
		</layer>
		<layer id="57" name="__module.pretrained.blocks.0.attn/aten::mul/Multiply/fq_output_0/input_high" type="Const" version="opset1">
			<data element_type="f32" shape="" offset="1733514" size="4" />
			<output>
				<port id="0" precision="FP32" />
			</output>
		</layer>
		<layer id="58" name="__module.pretrained.blocks.0.attn/aten::mul/Multiply/fq_output_0/output_low" type="Const" version="opset1">
			<data element_type="f32" shape="" offset="1733510" size="4" />
			<output>
				<port id="0" precision="FP32" />
			</output>
		</layer>
		<layer id="59" name="__module.pretrained.blocks.0.attn/aten::mul/Multiply/fq_output_0/output_high" type="Const" version="opset1">
			<data element_type="f32" shape="" offset="1733514" size="4" />
			<output>
				<port id="0" precision="FP32" />
			</output>
		</layer>
		<layer id="60" name="__module.pretrained.blocks.0.attn/aten::mul/Multiply/fq_output_0" type="FakeQuantize" version="opset1">
			<data levels="256" auto_broadcast="numpy" />
			<input>
				<port id="0" precision="FP32">
					<dim>1</dim>
					<dim>6</dim>
					<dim>1370</dim>
					<dim>64</dim>
				</port>
				<port id="1" precision="FP32" />
				<port id="2" precision="FP32" />
				<port id="3" precision="FP32" />
				<port id="4" precision="FP32" />
			</input>
			<output>
				<port id="5" precision="FP32">
					<dim>1</dim>
					<dim>6</dim>
					<dim>1370</dim>
					<dim>64</dim>
				</port>
			</output>
		</layer>
		<layer id="61" name="__module.pretrained.blocks.0.attn/aten::select/Gather_1/fq_input_0/input_low" type="Const" version="opset1">
			<data element_type="f32" shape="" offset="1733518" size="4" />
			<output>
				<port id="0" precision="FP32" />
			</output>
		</layer>
		<layer id="62" name="__module.pretrained.blocks.0.attn/aten::select/Gather_1/fq_input_0/input_high" type="Const" version="opset1">
			<data element_type="f32" shape="" offset="1733522" size="4" />
			<output>
				<port id="0" precision="FP32" />
			</output>
		</layer>
		<layer id="63" name="__module.pretrained.blocks.0.attn/aten::select/Gather_1/fq_input_0/output_low" type="Const" version="opset1">
			<data element_type="f32" shape="" offset="1733518" size="4" />
			<output>
				<port id="0" precision="FP32" />
			</output>
		</layer>
		<layer id="64" name="__module.pretrained.blocks.0.attn/aten::select/Gather_1/fq_input_0/output_high" type="Const" version="opset1">
			<data element_type="f32" shape="" offset="1733522" size="4" />
			<output>
				<port id="0" precision="FP32" />
			</output>
		</layer>
		<layer id="65" name="__module.pretrained.blocks.0.attn/aten::select/Gather_1/fq_input_0" type="FakeQuantize" version="opset1">
			<data levels="256" auto_broadcast="numpy" />
			<input>
				<port id="0" precision="FP32">
					<dim>3</dim>
					<dim>1</dim>
					<dim>6</dim>
					<dim>1370</dim>
					<dim>64</dim>
				</port>
				<port id="1" precision="FP32" />
				<port id="2" precision="FP32" />
				<port id="3" precision="FP32" />
				<port id="4" precision="FP32" />
			</input>
			<output>
				<port id="5" precision="FP32">
					<dim>3</dim>
					<dim>1</dim>
					<dim>6</dim>
					<dim>1370</dim>
					<dim>64</dim>
				</port>
			</output>
		</layer>
		<layer id="66" name="167" type="Const" version="opset1">
			<data element_type="i64" shape="" offset="1733526" size="8" />
			<output>
				<port id="0" precision="I64" names="167" />
			</output>
		</layer>
		<layer id="67" name="__module.pretrained.blocks.0.attn/aten::select/Gather_1" type="Gather" version="opset8">
			<data batch_dims="0" />
			<input>
				<port id="0" precision="FP32">
					<dim>3</dim>
					<dim>1</dim>
					<dim>6</dim>
					<dim>1370</dim>
					<dim>64</dim>
				</port>
				<port id="1" precision="I64" />
				<port id="2" precision="I64" />
			</input>
			<output>
				<port id="3" precision="FP32" names="209,k.1">
					<dim>1</dim>
					<dim>6</dim>
					<dim>1370</dim>
					<dim>64</dim>
				</port>
			</output>
		</layer>
		<layer id="68" name="__module.pretrained.blocks.0.attn/aten::matmul/MatMul" type="MatMul" version="opset1">
			<data transpose_a="false" transpose_b="true" />
			<input>
				<port id="0" precision="FP32">
					<dim>1</dim>
					<dim>6</dim>
					<dim>1370</dim>
					<dim>64</dim>
				</port>
				<port id="1" precision="FP32">
					<dim>1</dim>
					<dim>6</dim>
					<dim>1370</dim>
					<dim>64</dim>
				</port>
			</input>
			<output>
				<port id="2" precision="FP32" names="212,attn.1">
					<dim>1</dim>
					<dim>6</dim>
					<dim>1370</dim>
					<dim>1370</dim>
				</port>
			</output>
		</layer>
		<layer id="69" name="__module.pretrained.blocks.0.attn/aten::softmax/Softmax" type="SoftMax" version="opset8">
			<data axis="-1" />
			<input>
				<port id="0" precision="FP32">
					<dim>1</dim>
					<dim>6</dim>
					<dim>1370</dim>
					<dim>1370</dim>
				</port>
			</input>
			<output>
				<port id="1" precision="FP32" names="213,input.3">
					<dim>1</dim>
					<dim>6</dim>
					<dim>1370</dim>
					<dim>1370</dim>
				</port>
			</output>
		</layer>
		<layer id="70" name="168" type="Const" version="opset1">
			<data element_type="i64" shape="" offset="1733534" size="8" />
			<output>
				<port id="0" precision="I64" names="168" />
			</output>
		</layer>
		<layer id="71" name="__module.pretrained.blocks.0.attn/aten::select/Gather_2" type="Gather" version="opset8">
			<data batch_dims="0" />
			<input>
				<port id="0" precision="FP32">
					<dim>3</dim>
					<dim>1</dim>
					<dim>6</dim>
					<dim>1370</dim>
					<dim>64</dim>
				</port>
				<port id="1" precision="I64" />
				<port id="2" precision="I64" />
			</input>
			<output>
				<port id="3" precision="FP32" names="210,v.1">
					<dim>1</dim>
					<dim>6</dim>
					<dim>1370</dim>
					<dim>64</dim>
				</port>
			</output>
		</layer>
		<layer id="72" name="__module.pretrained.blocks.0.attn/aten::matmul/MatMul_1" type="MatMul" version="opset1">
			<data transpose_a="false" transpose_b="false" />
			<input>
				<port id="0" precision="FP32">
					<dim>1</dim>
					<dim>6</dim>
					<dim>1370</dim>
					<dim>1370</dim>
				</port>
				<port id="1" precision="FP32">
					<dim>1</dim>
					<dim>6</dim>
					<dim>1370</dim>
					<dim>64</dim>
				</port>
			</input>
			<output>
				<port id="2" precision="FP32" names="215">
					<dim>1</dim>
					<dim>6</dim>
					<dim>1370</dim>
					<dim>64</dim>
				</port>
			</output>
		</layer>
		<layer id="73" name="__module.pretrained.blocks.0.attn/aten::transpose/ScatterElementsUpdate_1" type="Const" version="opset1">
			<data element_type="i32" shape="4" offset="1733542" size="16" />
			<output>
				<port id="0" precision="I32">
					<dim>4</dim>
				</port>
			</output>
		</layer>
		<layer id="74" name="__module.pretrained.blocks.0.attn/aten::transpose/Transpose_1" type="Transpose" version="opset1">
			<input>
				<port id="0" precision="FP32">
					<dim>1</dim>
					<dim>6</dim>
					<dim>1370</dim>
					<dim>64</dim>
				</port>
				<port id="1" precision="I32">
					<dim>4</dim>
				</port>
			</input>
			<output>
				<port id="2" precision="FP32" names="216">
					<dim>1</dim>
					<dim>1370</dim>
					<dim>6</dim>
					<dim>64</dim>
				</port>
			</output>
		</layer>
		<layer id="75" name="__module.pretrained.blocks.0.attn/prim::ListConstruct/Concat_1" type="Const" version="opset1">
			<data element_type="i64" shape="3" offset="1733558" size="24" />
			<rt_info>
				<attribute name="precise" version="0" />
			</rt_info>
			<output>
				<port id="0" precision="I64" names="217">
					<dim>3</dim>
				</port>
			</output>
		</layer>
		<layer id="76" name="__module.pretrained.blocks.0.attn/aten::reshape/Reshape_1" type="Reshape" version="opset1">
			<data special_zero="false" />
			<input>
				<port id="0" precision="FP32">
					<dim>1</dim>
					<dim>1370</dim>
					<dim>6</dim>
					<dim>64</dim>
				</port>
				<port id="1" precision="I64">
					<dim>3</dim>
				</port>
			</input>
			<output>
				<port id="2" precision="FP32" names="218,input.5">
					<dim>1</dim>
					<dim>1370</dim>
					<dim>384</dim>
				</port>
			</output>
		</layer>
		<layer id="77" name="__module.pretrained.blocks.0.attn/aten::reshape/Reshape_1_0_0/nncf_smooth_quant/scale" type="Const" version="opset1">
			<data element_type="f32" shape="1, 1, 384" offset="1733582" size="1536" />
			<output>
				<port id="0" precision="FP32">
					<dim>1</dim>
					<dim>1</dim>
					<dim>384</dim>
				</port>
			</output>
		</layer>
		<layer id="78" name="__module.pretrained.blocks.0.attn/aten::reshape/Reshape_1_0_0/nncf_smooth_quant" type="Multiply" version="opset1">
			<data auto_broadcast="numpy" />
			<input>
				<port id="0" precision="FP32">
					<dim>1</dim>
					<dim>1370</dim>
					<dim>384</dim>
				</port>
				<port id="1" precision="FP32">
					<dim>1</dim>
					<dim>1</dim>
					<dim>384</dim>
				</port>
			</input>
			<output>
				<port id="2" precision="FP32">
					<dim>1</dim>
					<dim>1370</dim>
					<dim>384</dim>
				</port>
			</output>
		</layer>
		<layer id="79" name="__module.pretrained.blocks.0.attn/aten::reshape/Reshape_1_0_0/nncf_smooth_quant/fq_output_0/input_low" type="Const" version="opset1">
			<data element_type="f32" shape="" offset="1735118" size="4" />
			<output>
				<port id="0" precision="FP32" />
			</output>
		</layer>
		<layer id="80" name="__module.pretrained.blocks.0.attn/aten::reshape/Reshape_1_0_0/nncf_smooth_quant/fq_output_0/input_high" type="Const" version="opset1">
			<data element_type="f32" shape="" offset="1735122" size="4" />
			<output>
				<port id="0" precision="FP32" />
			</output>
		</layer>
		<layer id="81" name="__module.pretrained.blocks.0.attn/aten::reshape/Reshape_1_0_0/nncf_smooth_quant/fq_output_0/output_low" type="Const" version="opset1">
			<data element_type="f32" shape="" offset="1735118" size="4" />
			<output>
				<port id="0" precision="FP32" />
			</output>
		</layer>
		<layer id="82" name="__module.pretrained.blocks.0.attn/aten::reshape/Reshape_1_0_0/nncf_smooth_quant/fq_output_0/output_high" type="Const" version="opset1">
			<data element_type="f32" shape="" offset="1735122" size="4" />
			<output>
				<port id="0" precision="FP32" />
			</output>
		</layer>
		<layer id="83" name="__module.pretrained.blocks.0.attn/aten::reshape/Reshape_1_0_0/nncf_smooth_quant/fq_output_0" type="FakeQuantize" version="opset1">
			<data levels="256" auto_broadcast="numpy" />
			<input>
				<port id="0" precision="FP32">
					<dim>1</dim>
					<dim>1370</dim>
					<dim>384</dim>
				</port>
				<port id="1" precision="FP32" />
				<port id="2" precision="FP32" />
				<port id="3" precision="FP32" />
				<port id="4" precision="FP32" />
			</input>
			<output>
				<port id="5" precision="FP32">
					<dim>1</dim>
					<dim>1370</dim>
					<dim>384</dim>
				</port>
			</output>
		</layer>
		<layer id="84" name="Constant_546459" type="Const" version="opset1">
			<data element_type="i8" shape="384, 384" offset="1735126" size="147456" />
			<output>
				<port id="0" precision="I8">
					<dim>384</dim>
					<dim>384</dim>
				</port>
			</output>
		</layer>
		<layer id="85" name="Convert_546460" type="Convert" version="opset1">
			<data destination_type="f32" />
			<input>
				<port id="0" precision="I8">
					<dim>384</dim>
					<dim>384</dim>
				</port>
			</input>
			<output>
				<port id="1" precision="FP32">
					<dim>384</dim>
					<dim>384</dim>
				</port>
			</output>
		</layer>
		<layer id="86" name="Constant_546461" type="Const" version="opset1">
			<data element_type="f32" shape="384, 1" offset="1882582" size="1536" />
			<output>
				<port id="0" precision="FP32">
					<dim>384</dim>
					<dim>1</dim>
				</port>
			</output>
		</layer>
		<layer id="87" name="Multiply_14874/fq_weights_1" type="Multiply" version="opset1">
			<data auto_broadcast="numpy" />
			<input>
				<port id="0" precision="FP32">
					<dim>384</dim>
					<dim>384</dim>
				</port>
				<port id="1" precision="FP32">
					<dim>384</dim>
					<dim>1</dim>
				</port>
			</input>
			<output>
				<port id="2" precision="FP32">
					<dim>384</dim>
					<dim>384</dim>
				</port>
			</output>
		</layer>
		<layer id="88" name="Multiply_14874" type="MatMul" version="opset1">
			<data transpose_a="false" transpose_b="true" />
			<input>
				<port id="0" precision="FP32">
					<dim>1</dim>
					<dim>1370</dim>
					<dim>384</dim>
				</port>
				<port id="1" precision="FP32">
					<dim>384</dim>
					<dim>384</dim>
				</port>
			</input>
			<output>
				<port id="2" precision="FP32">
					<dim>1</dim>
					<dim>1370</dim>
					<dim>384</dim>
				</port>
			</output>
		</layer>
		<layer id="89" name="Constant_15351_compressed" type="Const" version="opset1">
			<data element_type="f16" shape="1, 1, 384" offset="1884118" size="768" />
			<output>
				<port id="0" precision="FP16">
					<dim>1</dim>
					<dim>1</dim>
					<dim>384</dim>
				</port>
			</output>
		</layer>
		<layer id="90" name="Constant_15351" type="Convert" version="opset1">
			<data destination_type="f32" />
			<rt_info>
				<attribute name="decompression" version="0" />
			</rt_info>
			<input>
				<port id="0" precision="FP16">
					<dim>1</dim>
					<dim>1</dim>
					<dim>384</dim>
				</port>
			</input>
			<output>
				<port id="1" precision="FP32">
					<dim>1</dim>
					<dim>1</dim>
					<dim>384</dim>
				</port>
			</output>
		</layer>
		<layer id="91" name="__module.pretrained.blocks.0.ls1/aten::mul/Multiply" type="Add" version="opset1">
			<data auto_broadcast="numpy" />
			<input>
				<port id="0" precision="FP32">
					<dim>1</dim>
					<dim>1370</dim>
					<dim>384</dim>
				</port>
				<port id="1" precision="FP32">
					<dim>1</dim>
					<dim>1</dim>
					<dim>384</dim>
				</port>
			</input>
			<output>
				<port id="2" precision="FP32" names="224">
					<dim>1</dim>
					<dim>1370</dim>
					<dim>384</dim>
				</port>
			</output>
		</layer>
		<layer id="92" name="__module.pretrained.blocks.0/aten::add/Add" type="Add" version="opset1">
			<data auto_broadcast="numpy" />
			<input>
				<port id="0" precision="FP32">
					<dim>1</dim>
					<dim>1370</dim>
					<dim>384</dim>
				</port>
				<port id="1" precision="FP32">
					<dim>1</dim>
					<dim>1370</dim>
					<dim>384</dim>
				</port>
			</input>
			<output>
				<port id="2" precision="FP32" names="225,input.9">
					<dim>1</dim>
					<dim>1370</dim>
					<dim>384</dim>
				</port>
			</output>
		</layer>
		<layer id="93" name="__module.pretrained.blocks.0.norm2/aten::layer_norm/Constant" type="Const" version="opset1">
			<data element_type="i32" shape="1" offset="1281056" size="4" />
			<output>
				<port id="0" precision="I32">
					<dim>1</dim>
				</port>
			</output>
		</layer>
		<layer id="94" name="__module.pretrained.blocks.0.norm2/aten::layer_norm/MVN" type="MVN" version="opset6">
			<data eps="9.9999999747524271e-07" normalize_variance="true" eps_mode="INSIDE_SQRT" />
			<input>
				<port id="0" precision="FP32">
					<dim>1</dim>
					<dim>1370</dim>
					<dim>384</dim>
				</port>
				<port id="1" precision="I32">
					<dim>1</dim>
				</port>
			</input>
			<output>
				<port id="2" precision="FP32">
					<dim>1</dim>
					<dim>1370</dim>
					<dim>384</dim>
				</port>
			</output>
		</layer>
		<layer id="95" name="Constant_15352_compressed" type="Const" version="opset1">
			<data element_type="f16" shape="1, 1, 384" offset="1884886" size="768" />
			<output>
				<port id="0" precision="FP16">
					<dim>1</dim>
					<dim>1</dim>
					<dim>384</dim>
				</port>
			</output>
		</layer>
		<layer id="96" name="Constant_15352" type="Convert" version="opset1">
			<data destination_type="f32" />
			<rt_info>
				<attribute name="decompression" version="0" />
			</rt_info>
			<input>
				<port id="0" precision="FP16">
					<dim>1</dim>
					<dim>1</dim>
					<dim>384</dim>
				</port>
			</input>
			<output>
				<port id="1" precision="FP32">
					<dim>1</dim>
					<dim>1</dim>
					<dim>384</dim>
				</port>
			</output>
		</layer>
		<layer id="97" name="__module.pretrained.blocks.0.norm2/aten::layer_norm/Multiply" type="Multiply" version="opset1">
			<data auto_broadcast="numpy" />
			<input>
				<port id="0" precision="FP32">
					<dim>1</dim>
					<dim>1370</dim>
					<dim>384</dim>
				</port>
				<port id="1" precision="FP32">
					<dim>1</dim>
					<dim>1</dim>
					<dim>384</dim>
				</port>
			</input>
			<output>
				<port id="2" precision="FP32">
					<dim>1</dim>
					<dim>1370</dim>
					<dim>384</dim>
				</port>
			</output>
		</layer>
		<layer id="98" name="Constant_15353_compressed" type="Const" version="opset1">
			<data element_type="f16" shape="1, 1, 384" offset="1885654" size="768" />
			<output>
				<port id="0" precision="FP16">
					<dim>1</dim>
					<dim>1</dim>
					<dim>384</dim>
				</port>
			</output>
		</layer>
		<layer id="99" name="Constant_15353" type="Convert" version="opset1">
			<data destination_type="f32" />
			<rt_info>
				<attribute name="decompression" version="0" />
			</rt_info>
			<input>
				<port id="0" precision="FP16">
					<dim>1</dim>
					<dim>1</dim>
					<dim>384</dim>
				</port>
			</input>
			<output>
				<port id="1" precision="FP32">
					<dim>1</dim>
					<dim>1</dim>
					<dim>384</dim>
				</port>
			</output>
		</layer>
		<layer id="100" name="__module.pretrained.blocks.0.norm2/aten::layer_norm/Add" type="Add" version="opset1">
			<data auto_broadcast="numpy" />
			<input>
				<port id="0" precision="FP32">
					<dim>1</dim>
					<dim>1370</dim>
					<dim>384</dim>
				</port>
				<port id="1" precision="FP32">
					<dim>1</dim>
					<dim>1</dim>
					<dim>384</dim>
				</port>
			</input>
			<output>
				<port id="2" precision="FP32" names="229,input.11">
					<dim>1</dim>
					<dim>1370</dim>
					<dim>384</dim>
				</port>
			</output>
		</layer>
		<layer id="101" name="__module.pretrained.blocks.0.norm2/aten::layer_norm/Add_0_0/nncf_smooth_quant/scale" type="Const" version="opset1">
			<data element_type="f32" shape="1, 1, 384" offset="1886422" size="1536" />
			<output>
				<port id="0" precision="FP32">
					<dim>1</dim>
					<dim>1</dim>
					<dim>384</dim>
				</port>
			</output>
		</layer>
		<layer id="102" name="__module.pretrained.blocks.0.norm2/aten::layer_norm/Add_0_0/nncf_smooth_quant" type="Multiply" version="opset1">
			<data auto_broadcast="numpy" />
			<input>
				<port id="0" precision="FP32">
					<dim>1</dim>
					<dim>1370</dim>
					<dim>384</dim>
				</port>
				<port id="1" precision="FP32">
					<dim>1</dim>
					<dim>1</dim>
					<dim>384</dim>
				</port>
			</input>
			<output>
				<port id="2" precision="FP32">
					<dim>1</dim>
					<dim>1370</dim>
					<dim>384</dim>
				</port>
			</output>
		</layer>
		<layer id="103" name="__module.pretrained.blocks.0.norm2/aten::layer_norm/Add_0_0/nncf_smooth_quant/fq_output_0/input_low" type="Const" version="opset1">
			<data element_type="f32" shape="" offset="1887958" size="4" />
			<output>
				<port id="0" precision="FP32" />
			</output>
		</layer>
		<layer id="104" name="__module.pretrained.blocks.0.norm2/aten::layer_norm/Add_0_0/nncf_smooth_quant/fq_output_0/input_high" type="Const" version="opset1">
			<data element_type="f32" shape="" offset="1887962" size="4" />
			<output>
				<port id="0" precision="FP32" />
			</output>
		</layer>
		<layer id="105" name="__module.pretrained.blocks.0.norm2/aten::layer_norm/Add_0_0/nncf_smooth_quant/fq_output_0/output_low" type="Const" version="opset1">
			<data element_type="f32" shape="" offset="1887958" size="4" />
			<output>
				<port id="0" precision="FP32" />
			</output>
		</layer>
		<layer id="106" name="__module.pretrained.blocks.0.norm2/aten::layer_norm/Add_0_0/nncf_smooth_quant/fq_output_0/output_high" type="Const" version="opset1">
			<data element_type="f32" shape="" offset="1887962" size="4" />
			<output>
				<port id="0" precision="FP32" />
			</output>
		</layer>
		<layer id="107" name="__module.pretrained.blocks.0.norm2/aten::layer_norm/Add_0_0/nncf_smooth_quant/fq_output_0" type="FakeQuantize" version="opset1">
			<data levels="256" auto_broadcast="numpy" />
			<input>
				<port id="0" precision="FP32">
					<dim>1</dim>
					<dim>1370</dim>
					<dim>384</dim>
				</port>
				<port id="1" precision="FP32" />
				<port id="2" precision="FP32" />
				<port id="3" precision="FP32" />
				<port id="4" precision="FP32" />
			</input>
			<output>
				<port id="5" precision="FP32">
					<dim>1</dim>
					<dim>1370</dim>
					<dim>384</dim>
				</port>
			</output>
		</layer>
		<layer id="108" name="Constant_546464" type="Const" version="opset1">
			<data element_type="i8" shape="1536, 384" offset="1887966" size="589824" />
			<output>
				<port id="0" precision="I8">
					<dim>1536</dim>
					<dim>384</dim>
				</port>
			</output>
		</layer>
		<layer id="109" name="Convert_546465" type="Convert" version="opset1">
			<data destination_type="f32" />
			<input>
				<port id="0" precision="I8">
					<dim>1536</dim>
					<dim>384</dim>
				</port>
			</input>
			<output>
				<port id="1" precision="FP32">
					<dim>1536</dim>
					<dim>384</dim>
				</port>
			</output>
		</layer>
		<layer id="110" name="Constant_546466" type="Const" version="opset1">
			<data element_type="f32" shape="1536, 1" offset="2477790" size="6144" />
			<output>
				<port id="0" precision="FP32">
					<dim>1536</dim>
					<dim>1</dim>
				</port>
			</output>
		</layer>
		<layer id="111" name="__module.pretrained.blocks.0.mlp.fc1/aten::linear/MatMul/fq_weights_1" type="Multiply" version="opset1">
			<data auto_broadcast="numpy" />
			<input>
				<port id="0" precision="FP32">
					<dim>1536</dim>
					<dim>384</dim>
				</port>
				<port id="1" precision="FP32">
					<dim>1536</dim>
					<dim>1</dim>
				</port>
			</input>
			<output>
				<port id="2" precision="FP32">
					<dim>1536</dim>
					<dim>384</dim>
				</port>
			</output>
		</layer>
		<layer id="112" name="__module.pretrained.blocks.0.mlp.fc1/aten::linear/MatMul" type="MatMul" version="opset1">
			<data transpose_a="false" transpose_b="true" />
			<input>
				<port id="0" precision="FP32">
					<dim>1</dim>
					<dim>1370</dim>
					<dim>384</dim>
				</port>
				<port id="1" precision="FP32">
					<dim>1536</dim>
					<dim>384</dim>
				</port>
			</input>
			<output>
				<port id="2" precision="FP32">
					<dim>1</dim>
					<dim>1370</dim>
					<dim>1536</dim>
				</port>
			</output>
		</layer>
		<layer id="113" name="Constant_15354_compressed" type="Const" version="opset1">
			<data element_type="f16" shape="1, 1, 1536" offset="2483934" size="3072" />
			<output>
				<port id="0" precision="FP16">
					<dim>1</dim>
					<dim>1</dim>
					<dim>1536</dim>
				</port>
			</output>
		</layer>
		<layer id="114" name="Constant_15354" type="Convert" version="opset1">
			<data destination_type="f32" />
			<rt_info>
				<attribute name="decompression" version="0" />
			</rt_info>
			<input>
				<port id="0" precision="FP16">
					<dim>1</dim>
					<dim>1</dim>
					<dim>1536</dim>
				</port>
			</input>
			<output>
				<port id="1" precision="FP32">
					<dim>1</dim>
					<dim>1</dim>
					<dim>1536</dim>
				</port>
			</output>
		</layer>
		<layer id="115" name="__module.pretrained.blocks.0.mlp.fc1/aten::linear/Add" type="Add" version="opset1">
			<data auto_broadcast="numpy" />
			<input>
				<port id="0" precision="FP32">
					<dim>1</dim>
					<dim>1370</dim>
					<dim>1536</dim>
				</port>
				<port id="1" precision="FP32">
					<dim>1</dim>
					<dim>1</dim>
					<dim>1536</dim>
				</port>
			</input>
			<output>
				<port id="2" precision="FP32" names="236,input.13">
					<dim>1</dim>
					<dim>1370</dim>
					<dim>1536</dim>
				</port>
			</output>
		</layer>
		<layer id="116" name="__module.pretrained.blocks.0.mlp.act/aten::gelu/Gelu" type="Gelu" version="opset7">
			<data approximation_mode="ERF" />
			<input>
				<port id="0" precision="FP32">
					<dim>1</dim>
					<dim>1370</dim>
					<dim>1536</dim>
				</port>
			</input>
			<output>
				<port id="1" precision="FP32" names="237,input.15">
					<dim>1</dim>
					<dim>1370</dim>
					<dim>1536</dim>
				</port>
			</output>
		</layer>
		<layer id="117" name="__module.pretrained.blocks.0.mlp.act/aten::gelu/Gelu_0_0/nncf_smooth_quant/scale" type="Const" version="opset1">
			<data element_type="f32" shape="1, 1, 1536" offset="2487006" size="6144" />
			<output>
				<port id="0" precision="FP32">
					<dim>1</dim>
					<dim>1</dim>
					<dim>1536</dim>
				</port>
			</output>
		</layer>
		<layer id="118" name="__module.pretrained.blocks.0.mlp.act/aten::gelu/Gelu_0_0/nncf_smooth_quant" type="Multiply" version="opset1">
			<data auto_broadcast="numpy" />
			<input>
				<port id="0" precision="FP32">
					<dim>1</dim>
					<dim>1370</dim>
					<dim>1536</dim>
				</port>
				<port id="1" precision="FP32">
					<dim>1</dim>
					<dim>1</dim>
					<dim>1536</dim>
				</port>
			</input>
			<output>
				<port id="2" precision="FP32">
					<dim>1</dim>
					<dim>1370</dim>
					<dim>1536</dim>
				</port>
			</output>
		</layer>
		<layer id="119" name="__module.pretrained.blocks.0.mlp.act/aten::gelu/Gelu_0_0/nncf_smooth_quant/fq_output_0/input_low" type="Const" version="opset1">
			<data element_type="f32" shape="" offset="2493150" size="4" />
			<output>
				<port id="0" precision="FP32" />
			</output>
		</layer>
		<layer id="120" name="__module.pretrained.blocks.0.mlp.act/aten::gelu/Gelu_0_0/nncf_smooth_quant/fq_output_0/input_high" type="Const" version="opset1">
			<data element_type="f32" shape="" offset="2493154" size="4" />
			<output>
				<port id="0" precision="FP32" />
			</output>
		</layer>
		<layer id="121" name="__module.pretrained.blocks.0.mlp.act/aten::gelu/Gelu_0_0/nncf_smooth_quant/fq_output_0/output_low" type="Const" version="opset1">
			<data element_type="f32" shape="" offset="2493150" size="4" />
			<output>
				<port id="0" precision="FP32" />
			</output>
		</layer>
		<layer id="122" name="__module.pretrained.blocks.0.mlp.act/aten::gelu/Gelu_0_0/nncf_smooth_quant/fq_output_0/output_high" type="Const" version="opset1">
			<data element_type="f32" shape="" offset="2493154" size="4" />
			<output>
				<port id="0" precision="FP32" />
			</output>
		</layer>
		<layer id="123" name="__module.pretrained.blocks.0.mlp.act/aten::gelu/Gelu_0_0/nncf_smooth_quant/fq_output_0" type="FakeQuantize" version="opset1">
			<data levels="256" auto_broadcast="numpy" />
			<input>
				<port id="0" precision="FP32">
					<dim>1</dim>
					<dim>1370</dim>
					<dim>1536</dim>
				</port>
				<port id="1" precision="FP32" />
				<port id="2" precision="FP32" />
				<port id="3" precision="FP32" />
				<port id="4" precision="FP32" />
			</input>
			<output>
				<port id="5" precision="FP32">
					<dim>1</dim>
					<dim>1370</dim>
					<dim>1536</dim>
				</port>
			</output>
		</layer>
		<layer id="124" name="Constant_546469" type="Const" version="opset1">
			<data element_type="i8" shape="384, 1536" offset="2493158" size="589824" />
			<output>
				<port id="0" precision="I8">
					<dim>384</dim>
					<dim>1536</dim>
				</port>
			</output>
		</layer>
		<layer id="125" name="Convert_546470" type="Convert" version="opset1">
			<data destination_type="f32" />
			<input>
				<port id="0" precision="I8">
					<dim>384</dim>
					<dim>1536</dim>
				</port>
			</input>
			<output>
				<port id="1" precision="FP32">
					<dim>384</dim>
					<dim>1536</dim>
				</port>
			</output>
		</layer>
		<layer id="126" name="Constant_546471" type="Const" version="opset1">
			<data element_type="f32" shape="384, 1" offset="3082982" size="1536" />
			<output>
				<port id="0" precision="FP32">
					<dim>384</dim>
					<dim>1</dim>
				</port>
			</output>
		</layer>
		<layer id="127" name="Multiply_14878/fq_weights_1" type="Multiply" version="opset1">
			<data auto_broadcast="numpy" />
			<input>
				<port id="0" precision="FP32">
					<dim>384</dim>
					<dim>1536</dim>
				</port>
				<port id="1" precision="FP32">
					<dim>384</dim>
					<dim>1</dim>
				</port>
			</input>
			<output>
				<port id="2" precision="FP32">
					<dim>384</dim>
					<dim>1536</dim>
				</port>
			</output>
		</layer>
		<layer id="128" name="Multiply_14878" type="MatMul" version="opset1">
			<data transpose_a="false" transpose_b="true" />
			<input>
				<port id="0" precision="FP32">
					<dim>1</dim>
					<dim>1370</dim>
					<dim>1536</dim>
				</port>
				<port id="1" precision="FP32">
					<dim>384</dim>
					<dim>1536</dim>
				</port>
			</input>
			<output>
				<port id="2" precision="FP32">
					<dim>1</dim>
					<dim>1370</dim>
					<dim>384</dim>
				</port>
			</output>
		</layer>
		<layer id="129" name="Constant_15355_compressed" type="Const" version="opset1">
			<data element_type="f16" shape="1, 1, 384" offset="3084518" size="768" />
			<output>
				<port id="0" precision="FP16">
					<dim>1</dim>
					<dim>1</dim>
					<dim>384</dim>
				</port>
			</output>
		</layer>
		<layer id="130" name="Constant_15355" type="Convert" version="opset1">
			<data destination_type="f32" />
			<rt_info>
				<attribute name="decompression" version="0" />
			</rt_info>
			<input>
				<port id="0" precision="FP16">
					<dim>1</dim>
					<dim>1</dim>
					<dim>384</dim>
				</port>
			</input>
			<output>
				<port id="1" precision="FP32">
					<dim>1</dim>
					<dim>1</dim>
					<dim>384</dim>
				</port>
			</output>
		</layer>
		<layer id="131" name="__module.pretrained.blocks.0.ls2/aten::mul/Multiply" type="Add" version="opset1">
			<data auto_broadcast="numpy" />
			<input>
				<port id="0" precision="FP32">
					<dim>1</dim>
					<dim>1370</dim>
					<dim>384</dim>
				</port>
				<port id="1" precision="FP32">
					<dim>1</dim>
					<dim>1</dim>
					<dim>384</dim>
				</port>
			</input>
			<output>
				<port id="2" precision="FP32" names="244">
					<dim>1</dim>
					<dim>1370</dim>
					<dim>384</dim>
				</port>
			</output>
		</layer>
		<layer id="132" name="__module.pretrained.blocks.0/aten::add/Add_1" type="Add" version="opset1">
			<data auto_broadcast="numpy" />
			<input>
				<port id="0" precision="FP32">
					<dim>1</dim>
					<dim>1370</dim>
					<dim>384</dim>
				</port>
				<port id="1" precision="FP32">
					<dim>1</dim>
					<dim>1370</dim>
					<dim>384</dim>
				</port>
			</input>
			<output>
				<port id="2" precision="FP32" names="245,input.21">
					<dim>1</dim>
					<dim>1370</dim>
					<dim>384</dim>
				</port>
			</output>
		</layer>
		<layer id="133" name="__module.pretrained.blocks.1.norm1/aten::layer_norm/Constant" type="Const" version="opset1">
			<data element_type="i32" shape="1" offset="1281056" size="4" />
			<output>
				<port id="0" precision="I32">
					<dim>1</dim>
				</port>
			</output>
		</layer>
		<layer id="134" name="__module.pretrained.blocks.1.norm1/aten::layer_norm/MVN" type="MVN" version="opset6">
			<data eps="9.9999999747524271e-07" normalize_variance="true" eps_mode="INSIDE_SQRT" />
			<input>
				<port id="0" precision="FP32">
					<dim>1</dim>
					<dim>1370</dim>
					<dim>384</dim>
				</port>
				<port id="1" precision="I32">
					<dim>1</dim>
				</port>
			</input>
			<output>
				<port id="2" precision="FP32">
					<dim>1</dim>
					<dim>1370</dim>
					<dim>384</dim>
				</port>
			</output>
		</layer>
		<layer id="135" name="Constant_15356_compressed" type="Const" version="opset1">
			<data element_type="f16" shape="1, 1, 384" offset="3085286" size="768" />
			<output>
				<port id="0" precision="FP16">
					<dim>1</dim>
					<dim>1</dim>
					<dim>384</dim>
				</port>
			</output>
		</layer>
		<layer id="136" name="Constant_15356" type="Convert" version="opset1">
			<data destination_type="f32" />
			<rt_info>
				<attribute name="decompression" version="0" />
			</rt_info>
			<input>
				<port id="0" precision="FP16">
					<dim>1</dim>
					<dim>1</dim>
					<dim>384</dim>
				</port>
			</input>
			<output>
				<port id="1" precision="FP32">
					<dim>1</dim>
					<dim>1</dim>
					<dim>384</dim>
				</port>
			</output>
		</layer>
		<layer id="137" name="__module.pretrained.blocks.1.norm1/aten::layer_norm/Multiply" type="Multiply" version="opset1">
			<data auto_broadcast="numpy" />
			<input>
				<port id="0" precision="FP32">
					<dim>1</dim>
					<dim>1370</dim>
					<dim>384</dim>
				</port>
				<port id="1" precision="FP32">
					<dim>1</dim>
					<dim>1</dim>
					<dim>384</dim>
				</port>
			</input>
			<output>
				<port id="2" precision="FP32">
					<dim>1</dim>
					<dim>1370</dim>
					<dim>384</dim>
				</port>
			</output>
		</layer>
		<layer id="138" name="Constant_15357_compressed" type="Const" version="opset1">
			<data element_type="f16" shape="1, 1, 384" offset="3086054" size="768" />
			<output>
				<port id="0" precision="FP16">
					<dim>1</dim>
					<dim>1</dim>
					<dim>384</dim>
				</port>
			</output>
		</layer>
		<layer id="139" name="Constant_15357" type="Convert" version="opset1">
			<data destination_type="f32" />
			<rt_info>
				<attribute name="decompression" version="0" />
			</rt_info>
			<input>
				<port id="0" precision="FP16">
					<dim>1</dim>
					<dim>1</dim>
					<dim>384</dim>
				</port>
			</input>
			<output>
				<port id="1" precision="FP32">
					<dim>1</dim>
					<dim>1</dim>
					<dim>384</dim>
				</port>
			</output>
		</layer>
		<layer id="140" name="__module.pretrained.blocks.1.norm1/aten::layer_norm/Add" type="Add" version="opset1">
			<data auto_broadcast="numpy" />
			<input>
				<port id="0" precision="FP32">
					<dim>1</dim>
					<dim>1370</dim>
					<dim>384</dim>
				</port>
				<port id="1" precision="FP32">
					<dim>1</dim>
					<dim>1</dim>
					<dim>384</dim>
				</port>
			</input>
			<output>
				<port id="2" precision="FP32" names="272,x.15">
					<dim>1</dim>
					<dim>1370</dim>
					<dim>384</dim>
				</port>
			</output>
		</layer>
		<layer id="141" name="__module.pretrained.blocks.1.norm1/aten::layer_norm/Add_0_0/nncf_smooth_quant/scale" type="Const" version="opset1">
			<data element_type="f32" shape="1, 1, 384" offset="3086822" size="1536" />
			<output>
				<port id="0" precision="FP32">
					<dim>1</dim>
					<dim>1</dim>
					<dim>384</dim>
				</port>
			</output>
		</layer>
		<layer id="142" name="__module.pretrained.blocks.1.norm1/aten::layer_norm/Add_0_0/nncf_smooth_quant" type="Multiply" version="opset1">
			<data auto_broadcast="numpy" />
			<input>
				<port id="0" precision="FP32">
					<dim>1</dim>
					<dim>1370</dim>
					<dim>384</dim>
				</port>
				<port id="1" precision="FP32">
					<dim>1</dim>
					<dim>1</dim>
					<dim>384</dim>
				</port>
			</input>
			<output>
				<port id="2" precision="FP32">
					<dim>1</dim>
					<dim>1370</dim>
					<dim>384</dim>
				</port>
			</output>
		</layer>
		<layer id="143" name="__module.pretrained.blocks.1.norm1/aten::layer_norm/Add_0_0/nncf_smooth_quant/fq_output_0/input_low" type="Const" version="opset1">
			<data element_type="f32" shape="" offset="3088358" size="4" />
			<output>
				<port id="0" precision="FP32" />
			</output>
		</layer>
		<layer id="144" name="__module.pretrained.blocks.1.norm1/aten::layer_norm/Add_0_0/nncf_smooth_quant/fq_output_0/input_high" type="Const" version="opset1">
			<data element_type="f32" shape="" offset="3088362" size="4" />
			<output>
				<port id="0" precision="FP32" />
			</output>
		</layer>
		<layer id="145" name="__module.pretrained.blocks.1.norm1/aten::layer_norm/Add_0_0/nncf_smooth_quant/fq_output_0/output_low" type="Const" version="opset1">
			<data element_type="f32" shape="" offset="3088358" size="4" />
			<output>
				<port id="0" precision="FP32" />
			</output>
		</layer>
		<layer id="146" name="__module.pretrained.blocks.1.norm1/aten::layer_norm/Add_0_0/nncf_smooth_quant/fq_output_0/output_high" type="Const" version="opset1">
			<data element_type="f32" shape="" offset="3088362" size="4" />
			<output>
				<port id="0" precision="FP32" />
			</output>
		</layer>
		<layer id="147" name="__module.pretrained.blocks.1.norm1/aten::layer_norm/Add_0_0/nncf_smooth_quant/fq_output_0" type="FakeQuantize" version="opset1">
			<data levels="256" auto_broadcast="numpy" />
			<input>
				<port id="0" precision="FP32">
					<dim>1</dim>
					<dim>1370</dim>
					<dim>384</dim>
				</port>
				<port id="1" precision="FP32" />
				<port id="2" precision="FP32" />
				<port id="3" precision="FP32" />
				<port id="4" precision="FP32" />
			</input>
			<output>
				<port id="5" precision="FP32">
					<dim>1</dim>
					<dim>1370</dim>
					<dim>384</dim>
				</port>
			</output>
		</layer>
		<layer id="148" name="Constant_546474" type="Const" version="opset1">
			<data element_type="i8" shape="1152, 384" offset="3088366" size="442368" />
			<output>
				<port id="0" precision="I8">
					<dim>1152</dim>
					<dim>384</dim>
				</port>
			</output>
		</layer>
		<layer id="149" name="Convert_546475" type="Convert" version="opset1">
			<data destination_type="f32" />
			<input>
				<port id="0" precision="I8">
					<dim>1152</dim>
					<dim>384</dim>
				</port>
			</input>
			<output>
				<port id="1" precision="FP32">
					<dim>1152</dim>
					<dim>384</dim>
				</port>
			</output>
		</layer>
		<layer id="150" name="Constant_546476" type="Const" version="opset1">
			<data element_type="f32" shape="1152, 1" offset="3530734" size="4608" />
			<output>
				<port id="0" precision="FP32">
					<dim>1152</dim>
					<dim>1</dim>
				</port>
			</output>
		</layer>
		<layer id="151" name="__module.pretrained.blocks.1.attn.qkv/aten::linear/MatMul/fq_weights_1" type="Multiply" version="opset1">
			<data auto_broadcast="numpy" />
			<input>
				<port id="0" precision="FP32">
					<dim>1152</dim>
					<dim>384</dim>
				</port>
				<port id="1" precision="FP32">
					<dim>1152</dim>
					<dim>1</dim>
				</port>
			</input>
			<output>
				<port id="2" precision="FP32">
					<dim>1152</dim>
					<dim>384</dim>
				</port>
			</output>
		</layer>
		<layer id="152" name="__module.pretrained.blocks.1.attn.qkv/aten::linear/MatMul" type="MatMul" version="opset1">
			<data transpose_a="false" transpose_b="true" />
			<input>
				<port id="0" precision="FP32">
					<dim>1</dim>
					<dim>1370</dim>
					<dim>384</dim>
				</port>
				<port id="1" precision="FP32">
					<dim>1152</dim>
					<dim>384</dim>
				</port>
			</input>
			<output>
				<port id="2" precision="FP32">
					<dim>1</dim>
					<dim>1370</dim>
					<dim>1152</dim>
				</port>
			</output>
		</layer>
		<layer id="153" name="Constant_15358_compressed" type="Const" version="opset1">
			<data element_type="f16" shape="1, 1, 1152" offset="3535342" size="2304" />
			<output>
				<port id="0" precision="FP16">
					<dim>1</dim>
					<dim>1</dim>
					<dim>1152</dim>
				</port>
			</output>
		</layer>
		<layer id="154" name="Constant_15358" type="Convert" version="opset1">
			<data destination_type="f32" />
			<rt_info>
				<attribute name="decompression" version="0" />
			</rt_info>
			<input>
				<port id="0" precision="FP16">
					<dim>1</dim>
					<dim>1</dim>
					<dim>1152</dim>
				</port>
			</input>
			<output>
				<port id="1" precision="FP32">
					<dim>1</dim>
					<dim>1</dim>
					<dim>1152</dim>
				</port>
			</output>
		</layer>
		<layer id="155" name="__module.pretrained.blocks.1.attn.qkv/aten::linear/Add" type="Add" version="opset1">
			<data auto_broadcast="numpy" />
			<input>
				<port id="0" precision="FP32">
					<dim>1</dim>
					<dim>1370</dim>
					<dim>1152</dim>
				</port>
				<port id="1" precision="FP32">
					<dim>1</dim>
					<dim>1</dim>
					<dim>1152</dim>
				</port>
			</input>
			<output>
				<port id="2" precision="FP32" names="281">
					<dim>1</dim>
					<dim>1370</dim>
					<dim>1152</dim>
				</port>
			</output>
		</layer>
		<layer id="156" name="__module.pretrained.blocks.1.attn/aten::size/ShapeOf" type="ShapeOf" version="opset3">
			<data output_type="i64" />
			<input>
				<port id="0" precision="FP32">
					<dim>1</dim>
					<dim>1370</dim>
					<dim>384</dim>
				</port>
			</input>
			<output>
				<port id="1" precision="I64">
					<dim>3</dim>
				</port>
			</output>
		</layer>
		<layer id="157" name="Constant_13157" type="Const" version="opset1">
			<data element_type="i64" shape="2" offset="3537646" size="16" />
			<rt_info>
				<attribute name="precise" version="0" />
			</rt_info>
			<output>
				<port id="0" precision="I64">
					<dim>2</dim>
				</port>
			</output>
		</layer>
		<layer id="158" name="Constant_13158" type="Const" version="opset1">
			<data element_type="i64" shape="" offset="1733500" size="8" />
			<rt_info>
				<attribute name="precise" version="0" />
			</rt_info>
			<output>
				<port id="0" precision="I64" />
			</output>
		</layer>
		<layer id="159" name="Gather_13159" type="Gather" version="opset8">
			<data batch_dims="0" />
			<input>
				<port id="0" precision="I64">
					<dim>3</dim>
				</port>
				<port id="1" precision="I64">
					<dim>2</dim>
				</port>
				<port id="2" precision="I64" />
			</input>
			<output>
				<port id="3" precision="I64">
					<dim>2</dim>
				</port>
			</output>
		</layer>
		<layer id="160" name="__module.pretrained.blocks.1.attn/prim::ListConstruct/Reshape_1" type="Const" version="opset1">
			<data element_type="i64" shape="1" offset="3537662" size="8" />
			<rt_info>
				<attribute name="precise" version="0" />
			</rt_info>
			<output>
				<port id="0" precision="I64">
					<dim>1</dim>
				</port>
			</output>
		</layer>
		<layer id="161" name="__module.pretrained.blocks.1.attn/prim::ListConstruct/Reshape_2" type="Const" version="opset1">
			<data element_type="i64" shape="1" offset="3537670" size="8" />
			<rt_info>
				<attribute name="precise" version="0" />
			</rt_info>
			<output>
				<port id="0" precision="I64">
					<dim>1</dim>
				</port>
			</output>
		</layer>
		<layer id="162" name="249" type="Const" version="opset1">
			<data element_type="i64" shape="" offset="1733534" size="8" />
			<rt_info>
				<attribute name="precise" version="0" />
			</rt_info>
			<output>
				<port id="0" precision="I64" names="249" />
			</output>
		</layer>
		<layer id="163" name="__module.pretrained.blocks.1.attn/aten::size/Constant_2" type="Const" version="opset1">
			<data element_type="i32" shape="" offset="3537678" size="4" />
			<rt_info>
				<attribute name="precise" version="0" />
			</rt_info>
			<output>
				<port id="0" precision="I32" />
			</output>
		</layer>
		<layer id="164" name="__module.pretrained.blocks.1.attn/aten::size/Gather_2" type="Gather" version="opset8">
			<data batch_dims="0" />
			<input>
				<port id="0" precision="I64">
					<dim>3</dim>
				</port>
				<port id="1" precision="I64" />
				<port id="2" precision="I32" />
			</input>
			<output>
				<port id="3" precision="I64" names="277" />
			</output>
		</layer>
		<layer id="165" name="Constant_492" type="Const" version="opset1">
			<data element_type="i64" shape="" offset="3537670" size="8" />
			<rt_info>
				<attribute name="precise" version="0" />
			</rt_info>
			<output>
				<port id="0" precision="I64" names="250" />
			</output>
		</layer>
		<layer id="166" name="__module.pretrained.blocks.1.attn/aten::floor_divide/Divide" type="Divide" version="opset1">
			<data auto_broadcast="numpy" m_pythondiv="true" />
			<input>
				<port id="0" precision="I64" />
				<port id="1" precision="I64" />
			</input>
			<output>
				<port id="2" precision="I64" />
			</output>
		</layer>
		<layer id="167" name="__module.pretrained.blocks.1.attn/aten::floor_divide/Floor" type="Floor" version="opset1">
			<input>
				<port id="0" precision="I64" />
			</input>
			<output>
				<port id="1" precision="I64" names="282,283" />
			</output>
		</layer>
		<layer id="168" name="Constant_8903" type="Const" version="opset1">
			<data element_type="i64" shape="1" offset="3537682" size="8" />
			<rt_info>
				<attribute name="precise" version="0" />
			</rt_info>
			<output>
				<port id="0" precision="I64">
					<dim>1</dim>
				</port>
			</output>
		</layer>
		<layer id="169" name="__module.pretrained.blocks.1.attn/prim::ListConstruct/Reshape_3" type="Reshape" version="opset1">
			<data special_zero="false" />
			<input>
				<port id="0" precision="I64" />
				<port id="1" precision="I64">
					<dim>1</dim>
				</port>
			</input>
			<output>
				<port id="2" precision="I64">
					<dim>1</dim>
				</port>
			</output>
		</layer>
		<layer id="170" name="__module.pretrained.blocks.1.attn/prim::ListConstruct/Concat" type="Concat" version="opset1">
			<data axis="0" />
			<input>
				<port id="0" precision="I64">
					<dim>2</dim>
				</port>
				<port id="1" precision="I64">
					<dim>1</dim>
				</port>
				<port id="2" precision="I64">
					<dim>1</dim>
				</port>
				<port id="3" precision="I64">
					<dim>1</dim>
				</port>
			</input>
			<output>
				<port id="4" precision="I64" names="284">
					<dim>5</dim>
				</port>
			</output>
		</layer>
		<layer id="171" name="__module.pretrained.blocks.1.attn/aten::reshape/Reshape" type="Reshape" version="opset1">
			<data special_zero="false" />
			<input>
				<port id="0" precision="FP32">
					<dim>1</dim>
					<dim>1370</dim>
					<dim>1152</dim>
				</port>
				<port id="1" precision="I64">
					<dim>5</dim>
				</port>
			</input>
			<output>
				<port id="2" precision="FP32" names="285">
					<dim>1</dim>
					<dim>1370</dim>
					<dim>3</dim>
					<dim>6</dim>
					<dim>64</dim>
				</port>
			</output>
		</layer>
		<layer id="172" name="Constant_556" type="Const" version="opset1">
			<data element_type="i64" shape="5" offset="1733460" size="40" />
			<output>
				<port id="0" precision="I64" names="286">
					<dim>5</dim>
				</port>
			</output>
		</layer>
		<layer id="173" name="__module.pretrained.blocks.1.attn/aten::permute/Transpose" type="Transpose" version="opset1">
			<input>
				<port id="0" precision="FP32">
					<dim>1</dim>
					<dim>1370</dim>
					<dim>3</dim>
					<dim>6</dim>
					<dim>64</dim>
				</port>
				<port id="1" precision="I64">
					<dim>5</dim>
				</port>
			</input>
			<output>
				<port id="2" precision="FP32" names="287,qkv.3">
					<dim>3</dim>
					<dim>1</dim>
					<dim>6</dim>
					<dim>1370</dim>
					<dim>64</dim>
				</port>
			</output>
		</layer>
		<layer id="174" name="247" type="Const" version="opset1">
			<data element_type="i64" shape="" offset="1733500" size="8" />
			<output>
				<port id="0" precision="I64" names="247" />
			</output>
		</layer>
		<layer id="175" name="__module.pretrained.blocks.1.attn/aten::select/Gather" type="Gather" version="opset8">
			<data batch_dims="0" />
			<input>
				<port id="0" precision="FP32">
					<dim>3</dim>
					<dim>1</dim>
					<dim>6</dim>
					<dim>1370</dim>
					<dim>64</dim>
				</port>
				<port id="1" precision="I64" />
				<port id="2" precision="I64" />
			</input>
			<output>
				<port id="3" precision="FP32" names="288">
					<dim>1</dim>
					<dim>6</dim>
					<dim>1370</dim>
					<dim>64</dim>
				</port>
			</output>
		</layer>
		<layer id="176" name="Constant_15359_compressed" type="Const" version="opset1">
			<data element_type="f16" shape="1, 1, 1, 1" offset="1733508" size="2" />
			<output>
				<port id="0" precision="FP16">
					<dim>1</dim>
					<dim>1</dim>
					<dim>1</dim>
					<dim>1</dim>
				</port>
			</output>
		</layer>
		<layer id="177" name="Constant_15359" type="Convert" version="opset1">
			<data destination_type="f32" />
			<rt_info>
				<attribute name="decompression" version="0" />
			</rt_info>
			<input>
				<port id="0" precision="FP16">
					<dim>1</dim>
					<dim>1</dim>
					<dim>1</dim>
					<dim>1</dim>
				</port>
			</input>
			<output>
				<port id="1" precision="FP32">
					<dim>1</dim>
					<dim>1</dim>
					<dim>1</dim>
					<dim>1</dim>
				</port>
			</output>
		</layer>
		<layer id="178" name="__module.pretrained.blocks.1.attn/aten::mul/Multiply" type="Multiply" version="opset1">
			<data auto_broadcast="numpy" />
			<input>
				<port id="0" precision="FP32">
					<dim>1</dim>
					<dim>6</dim>
					<dim>1370</dim>
					<dim>64</dim>
				</port>
				<port id="1" precision="FP32">
					<dim>1</dim>
					<dim>1</dim>
					<dim>1</dim>
					<dim>1</dim>
				</port>
			</input>
			<output>
				<port id="2" precision="FP32" names="289,q.3">
					<dim>1</dim>
					<dim>6</dim>
					<dim>1370</dim>
					<dim>64</dim>
				</port>
			</output>
		</layer>
		<layer id="179" name="__module.pretrained.blocks.1.attn/aten::mul/Multiply/fq_output_0/input_low" type="Const" version="opset1">
			<data element_type="f32" shape="" offset="3537690" size="4" />
			<output>
				<port id="0" precision="FP32" />
			</output>
		</layer>
		<layer id="180" name="__module.pretrained.blocks.1.attn/aten::mul/Multiply/fq_output_0/input_high" type="Const" version="opset1">
			<data element_type="f32" shape="" offset="3537694" size="4" />
			<output>
				<port id="0" precision="FP32" />
			</output>
		</layer>
		<layer id="181" name="__module.pretrained.blocks.1.attn/aten::mul/Multiply/fq_output_0/output_low" type="Const" version="opset1">
			<data element_type="f32" shape="" offset="3537690" size="4" />
			<output>
				<port id="0" precision="FP32" />
			</output>
		</layer>
		<layer id="182" name="__module.pretrained.blocks.1.attn/aten::mul/Multiply/fq_output_0/output_high" type="Const" version="opset1">
			<data element_type="f32" shape="" offset="3537694" size="4" />
			<output>
				<port id="0" precision="FP32" />
			</output>
		</layer>
		<layer id="183" name="__module.pretrained.blocks.1.attn/aten::mul/Multiply/fq_output_0" type="FakeQuantize" version="opset1">
			<data levels="256" auto_broadcast="numpy" />
			<input>
				<port id="0" precision="FP32">
					<dim>1</dim>
					<dim>6</dim>
					<dim>1370</dim>
					<dim>64</dim>
				</port>
				<port id="1" precision="FP32" />
				<port id="2" precision="FP32" />
				<port id="3" precision="FP32" />
				<port id="4" precision="FP32" />
			</input>
			<output>
				<port id="5" precision="FP32">
					<dim>1</dim>
					<dim>6</dim>
					<dim>1370</dim>
					<dim>64</dim>
				</port>
			</output>
		</layer>
		<layer id="184" name="__module.pretrained.blocks.1.attn/aten::select/Gather_1/fq_input_0/input_low" type="Const" version="opset1">
			<data element_type="f32" shape="" offset="3537698" size="4" />
			<output>
				<port id="0" precision="FP32" />
			</output>
		</layer>
		<layer id="185" name="__module.pretrained.blocks.1.attn/aten::select/Gather_1/fq_input_0/input_high" type="Const" version="opset1">
			<data element_type="f32" shape="" offset="3537702" size="4" />
			<output>
				<port id="0" precision="FP32" />
			</output>
		</layer>
		<layer id="186" name="__module.pretrained.blocks.1.attn/aten::select/Gather_1/fq_input_0/output_low" type="Const" version="opset1">
			<data element_type="f32" shape="" offset="3537698" size="4" />
			<output>
				<port id="0" precision="FP32" />
			</output>
		</layer>
		<layer id="187" name="__module.pretrained.blocks.1.attn/aten::select/Gather_1/fq_input_0/output_high" type="Const" version="opset1">
			<data element_type="f32" shape="" offset="3537702" size="4" />
			<output>
				<port id="0" precision="FP32" />
			</output>
		</layer>
		<layer id="188" name="__module.pretrained.blocks.1.attn/aten::select/Gather_1/fq_input_0" type="FakeQuantize" version="opset1">
			<data levels="256" auto_broadcast="numpy" />
			<input>
				<port id="0" precision="FP32">
					<dim>3</dim>
					<dim>1</dim>
					<dim>6</dim>
					<dim>1370</dim>
					<dim>64</dim>
				</port>
				<port id="1" precision="FP32" />
				<port id="2" precision="FP32" />
				<port id="3" precision="FP32" />
				<port id="4" precision="FP32" />
			</input>
			<output>
				<port id="5" precision="FP32">
					<dim>3</dim>
					<dim>1</dim>
					<dim>6</dim>
					<dim>1370</dim>
					<dim>64</dim>
				</port>
			</output>
		</layer>
		<layer id="189" name="248" type="Const" version="opset1">
			<data element_type="i64" shape="" offset="1733526" size="8" />
			<output>
				<port id="0" precision="I64" names="248" />
			</output>
		</layer>
		<layer id="190" name="__module.pretrained.blocks.1.attn/aten::select/Gather_1" type="Gather" version="opset8">
			<data batch_dims="0" />
			<input>
				<port id="0" precision="FP32">
					<dim>3</dim>
					<dim>1</dim>
					<dim>6</dim>
					<dim>1370</dim>
					<dim>64</dim>
				</port>
				<port id="1" precision="I64" />
				<port id="2" precision="I64" />
			</input>
			<output>
				<port id="3" precision="FP32" names="290,k.3">
					<dim>1</dim>
					<dim>6</dim>
					<dim>1370</dim>
					<dim>64</dim>
				</port>
			</output>
		</layer>
		<layer id="191" name="__module.pretrained.blocks.1.attn/aten::matmul/MatMul" type="MatMul" version="opset1">
			<data transpose_a="false" transpose_b="true" />
			<input>
				<port id="0" precision="FP32">
					<dim>1</dim>
					<dim>6</dim>
					<dim>1370</dim>
					<dim>64</dim>
				</port>
				<port id="1" precision="FP32">
					<dim>1</dim>
					<dim>6</dim>
					<dim>1370</dim>
					<dim>64</dim>
				</port>
			</input>
			<output>
				<port id="2" precision="FP32" names="293,attn.5">
					<dim>1</dim>
					<dim>6</dim>
					<dim>1370</dim>
					<dim>1370</dim>
				</port>
			</output>
		</layer>
		<layer id="192" name="__module.pretrained.blocks.1.attn/aten::softmax/Softmax" type="SoftMax" version="opset8">
			<data axis="-1" />
			<input>
				<port id="0" precision="FP32">
					<dim>1</dim>
					<dim>6</dim>
					<dim>1370</dim>
					<dim>1370</dim>
				</port>
			</input>
			<output>
				<port id="1" precision="FP32" names="294,input.23">
					<dim>1</dim>
					<dim>6</dim>
					<dim>1370</dim>
					<dim>1370</dim>
				</port>
			</output>
		</layer>
		<layer id="193" name="__module.pretrained.blocks.1.attn/aten::select/Gather_2" type="Gather" version="opset8">
			<data batch_dims="0" />
			<input>
				<port id="0" precision="FP32">
					<dim>3</dim>
					<dim>1</dim>
					<dim>6</dim>
					<dim>1370</dim>
					<dim>64</dim>
				</port>
				<port id="1" precision="I64" />
				<port id="2" precision="I64" />
			</input>
			<output>
				<port id="3" precision="FP32" names="291,v.3">
					<dim>1</dim>
					<dim>6</dim>
					<dim>1370</dim>
					<dim>64</dim>
				</port>
			</output>
		</layer>
		<layer id="194" name="__module.pretrained.blocks.1.attn/aten::matmul/MatMul_1" type="MatMul" version="opset1">
			<data transpose_a="false" transpose_b="false" />
			<input>
				<port id="0" precision="FP32">
					<dim>1</dim>
					<dim>6</dim>
					<dim>1370</dim>
					<dim>1370</dim>
				</port>
				<port id="1" precision="FP32">
					<dim>1</dim>
					<dim>6</dim>
					<dim>1370</dim>
					<dim>64</dim>
				</port>
			</input>
			<output>
				<port id="2" precision="FP32" names="296">
					<dim>1</dim>
					<dim>6</dim>
					<dim>1370</dim>
					<dim>64</dim>
				</port>
			</output>
		</layer>
		<layer id="195" name="__module.pretrained.blocks.1.attn/aten::transpose/ScatterElementsUpdate_1" type="Const" version="opset1">
			<data element_type="i32" shape="4" offset="1733542" size="16" />
			<output>
				<port id="0" precision="I32">
					<dim>4</dim>
				</port>
			</output>
		</layer>
		<layer id="196" name="__module.pretrained.blocks.1.attn/aten::transpose/Transpose_1" type="Transpose" version="opset1">
			<input>
				<port id="0" precision="FP32">
					<dim>1</dim>
					<dim>6</dim>
					<dim>1370</dim>
					<dim>64</dim>
				</port>
				<port id="1" precision="I32">
					<dim>4</dim>
				</port>
			</input>
			<output>
				<port id="2" precision="FP32" names="297">
					<dim>1</dim>
					<dim>1370</dim>
					<dim>6</dim>
					<dim>64</dim>
				</port>
			</output>
		</layer>
		<layer id="197" name="Constant_8904" type="Const" version="opset1">
			<data element_type="i64" shape="1" offset="3537682" size="8" />
			<rt_info>
				<attribute name="precise" version="0" />
			</rt_info>
			<output>
				<port id="0" precision="I64">
					<dim>1</dim>
				</port>
			</output>
		</layer>
		<layer id="198" name="__module.pretrained.blocks.1.attn/prim::ListConstruct/Reshape_1_1" type="Reshape" version="opset1">
			<data special_zero="false" />
			<input>
				<port id="0" precision="I64" />
				<port id="1" precision="I64">
					<dim>1</dim>
				</port>
			</input>
			<output>
				<port id="2" precision="I64">
					<dim>1</dim>
				</port>
			</output>
		</layer>
		<layer id="199" name="__module.pretrained.blocks.1.attn/prim::ListConstruct/Concat_1" type="Concat" version="opset1">
			<data axis="0" />
			<input>
				<port id="0" precision="I64">
					<dim>2</dim>
				</port>
				<port id="1" precision="I64">
					<dim>1</dim>
				</port>
			</input>
			<output>
				<port id="2" precision="I64" names="298">
					<dim>3</dim>
				</port>
			</output>
		</layer>
		<layer id="200" name="__module.pretrained.blocks.1.attn/aten::reshape/Reshape_1" type="Reshape" version="opset1">
			<data special_zero="false" />
			<input>
				<port id="0" precision="FP32">
					<dim>1</dim>
					<dim>1370</dim>
					<dim>6</dim>
					<dim>64</dim>
				</port>
				<port id="1" precision="I64">
					<dim>3</dim>
				</port>
			</input>
			<output>
				<port id="2" precision="FP32" names="299,input.25">
					<dim>1</dim>
					<dim>1370</dim>
					<dim>384</dim>
				</port>
			</output>
		</layer>
		<layer id="201" name="__module.pretrained.blocks.1.attn/aten::reshape/Reshape_1_0_0/nncf_smooth_quant/scale" type="Const" version="opset1">
			<data element_type="f32" shape="1, 1, 384" offset="3537706" size="1536" />
			<output>
				<port id="0" precision="FP32">
					<dim>1</dim>
					<dim>1</dim>
					<dim>384</dim>
				</port>
			</output>
		</layer>
		<layer id="202" name="__module.pretrained.blocks.1.attn/aten::reshape/Reshape_1_0_0/nncf_smooth_quant" type="Multiply" version="opset1">
			<data auto_broadcast="numpy" />
			<input>
				<port id="0" precision="FP32">
					<dim>1</dim>
					<dim>1370</dim>
					<dim>384</dim>
				</port>
				<port id="1" precision="FP32">
					<dim>1</dim>
					<dim>1</dim>
					<dim>384</dim>
				</port>
			</input>
			<output>
				<port id="2" precision="FP32">
					<dim>1</dim>
					<dim>1370</dim>
					<dim>384</dim>
				</port>
			</output>
		</layer>
		<layer id="203" name="__module.pretrained.blocks.1.attn/aten::reshape/Reshape_1_0_0/nncf_smooth_quant/fq_output_0/input_low" type="Const" version="opset1">
			<data element_type="f32" shape="" offset="3539242" size="4" />
			<output>
				<port id="0" precision="FP32" />
			</output>
		</layer>
		<layer id="204" name="__module.pretrained.blocks.1.attn/aten::reshape/Reshape_1_0_0/nncf_smooth_quant/fq_output_0/input_high" type="Const" version="opset1">
			<data element_type="f32" shape="" offset="3539246" size="4" />
			<output>
				<port id="0" precision="FP32" />
			</output>
		</layer>
		<layer id="205" name="__module.pretrained.blocks.1.attn/aten::reshape/Reshape_1_0_0/nncf_smooth_quant/fq_output_0/output_low" type="Const" version="opset1">
			<data element_type="f32" shape="" offset="3539242" size="4" />
			<output>
				<port id="0" precision="FP32" />
			</output>
		</layer>
		<layer id="206" name="__module.pretrained.blocks.1.attn/aten::reshape/Reshape_1_0_0/nncf_smooth_quant/fq_output_0/output_high" type="Const" version="opset1">
			<data element_type="f32" shape="" offset="3539246" size="4" />
			<output>
				<port id="0" precision="FP32" />
			</output>
		</layer>
		<layer id="207" name="__module.pretrained.blocks.1.attn/aten::reshape/Reshape_1_0_0/nncf_smooth_quant/fq_output_0" type="FakeQuantize" version="opset1">
			<data levels="256" auto_broadcast="numpy" />
			<input>
				<port id="0" precision="FP32">
					<dim>1</dim>
					<dim>1370</dim>
					<dim>384</dim>
				</port>
				<port id="1" precision="FP32" />
				<port id="2" precision="FP32" />
				<port id="3" precision="FP32" />
				<port id="4" precision="FP32" />
			</input>
			<output>
				<port id="5" precision="FP32">
					<dim>1</dim>
					<dim>1370</dim>
					<dim>384</dim>
				</port>
			</output>
		</layer>
		<layer id="208" name="Constant_546479" type="Const" version="opset1">
			<data element_type="i8" shape="384, 384" offset="3539250" size="147456" />
			<output>
				<port id="0" precision="I8">
					<dim>384</dim>
					<dim>384</dim>
				</port>
			</output>
		</layer>
		<layer id="209" name="Convert_546480" type="Convert" version="opset1">
			<data destination_type="f32" />
			<input>
				<port id="0" precision="I8">
					<dim>384</dim>
					<dim>384</dim>
				</port>
			</input>
			<output>
				<port id="1" precision="FP32">
					<dim>384</dim>
					<dim>384</dim>
				</port>
			</output>
		</layer>
		<layer id="210" name="Constant_546481" type="Const" version="opset1">
			<data element_type="f32" shape="384, 1" offset="3686706" size="1536" />
			<output>
				<port id="0" precision="FP32">
					<dim>384</dim>
					<dim>1</dim>
				</port>
			</output>
		</layer>
		<layer id="211" name="Multiply_14882/fq_weights_1" type="Multiply" version="opset1">
			<data auto_broadcast="numpy" />
			<input>
				<port id="0" precision="FP32">
					<dim>384</dim>
					<dim>384</dim>
				</port>
				<port id="1" precision="FP32">
					<dim>384</dim>
					<dim>1</dim>
				</port>
			</input>
			<output>
				<port id="2" precision="FP32">
					<dim>384</dim>
					<dim>384</dim>
				</port>
			</output>
		</layer>
		<layer id="212" name="Multiply_14882" type="MatMul" version="opset1">
			<data transpose_a="false" transpose_b="true" />
			<input>
				<port id="0" precision="FP32">
					<dim>1</dim>
					<dim>1370</dim>
					<dim>384</dim>
				</port>
				<port id="1" precision="FP32">
					<dim>384</dim>
					<dim>384</dim>
				</port>
			</input>
			<output>
				<port id="2" precision="FP32">
					<dim>1</dim>
					<dim>1370</dim>
					<dim>384</dim>
				</port>
			</output>
		</layer>
		<layer id="213" name="Constant_15360_compressed" type="Const" version="opset1">
			<data element_type="f16" shape="1, 1, 384" offset="3688242" size="768" />
			<output>
				<port id="0" precision="FP16">
					<dim>1</dim>
					<dim>1</dim>
					<dim>384</dim>
				</port>
			</output>
		</layer>
		<layer id="214" name="Constant_15360" type="Convert" version="opset1">
			<data destination_type="f32" />
			<rt_info>
				<attribute name="decompression" version="0" />
			</rt_info>
			<input>
				<port id="0" precision="FP16">
					<dim>1</dim>
					<dim>1</dim>
					<dim>384</dim>
				</port>
			</input>
			<output>
				<port id="1" precision="FP32">
					<dim>1</dim>
					<dim>1</dim>
					<dim>384</dim>
				</port>
			</output>
		</layer>
		<layer id="215" name="__module.pretrained.blocks.1.ls1/aten::mul/Multiply" type="Add" version="opset1">
			<data auto_broadcast="numpy" />
			<input>
				<port id="0" precision="FP32">
					<dim>1</dim>
					<dim>1370</dim>
					<dim>384</dim>
				</port>
				<port id="1" precision="FP32">
					<dim>1</dim>
					<dim>1</dim>
					<dim>384</dim>
				</port>
			</input>
			<output>
				<port id="2" precision="FP32" names="305">
					<dim>1</dim>
					<dim>1370</dim>
					<dim>384</dim>
				</port>
			</output>
		</layer>
		<layer id="216" name="__module.pretrained.blocks.1/aten::add/Add" type="Add" version="opset1">
			<data auto_broadcast="numpy" />
			<input>
				<port id="0" precision="FP32">
					<dim>1</dim>
					<dim>1370</dim>
					<dim>384</dim>
				</port>
				<port id="1" precision="FP32">
					<dim>1</dim>
					<dim>1370</dim>
					<dim>384</dim>
				</port>
			</input>
			<output>
				<port id="2" precision="FP32" names="306,input.29">
					<dim>1</dim>
					<dim>1370</dim>
					<dim>384</dim>
				</port>
			</output>
		</layer>
		<layer id="217" name="__module.pretrained.blocks.1.norm2/aten::layer_norm/Constant" type="Const" version="opset1">
			<data element_type="i32" shape="1" offset="1281056" size="4" />
			<output>
				<port id="0" precision="I32">
					<dim>1</dim>
				</port>
			</output>
		</layer>
		<layer id="218" name="__module.pretrained.blocks.1.norm2/aten::layer_norm/MVN" type="MVN" version="opset6">
			<data eps="9.9999999747524271e-07" normalize_variance="true" eps_mode="INSIDE_SQRT" />
			<input>
				<port id="0" precision="FP32">
					<dim>1</dim>
					<dim>1370</dim>
					<dim>384</dim>
				</port>
				<port id="1" precision="I32">
					<dim>1</dim>
				</port>
			</input>
			<output>
				<port id="2" precision="FP32">
					<dim>1</dim>
					<dim>1370</dim>
					<dim>384</dim>
				</port>
			</output>
		</layer>
		<layer id="219" name="Constant_15361_compressed" type="Const" version="opset1">
			<data element_type="f16" shape="1, 1, 384" offset="3689010" size="768" />
			<output>
				<port id="0" precision="FP16">
					<dim>1</dim>
					<dim>1</dim>
					<dim>384</dim>
				</port>
			</output>
		</layer>
		<layer id="220" name="Constant_15361" type="Convert" version="opset1">
			<data destination_type="f32" />
			<rt_info>
				<attribute name="decompression" version="0" />
			</rt_info>
			<input>
				<port id="0" precision="FP16">
					<dim>1</dim>
					<dim>1</dim>
					<dim>384</dim>
				</port>
			</input>
			<output>
				<port id="1" precision="FP32">
					<dim>1</dim>
					<dim>1</dim>
					<dim>384</dim>
				</port>
			</output>
		</layer>
		<layer id="221" name="__module.pretrained.blocks.1.norm2/aten::layer_norm/Multiply" type="Multiply" version="opset1">
			<data auto_broadcast="numpy" />
			<input>
				<port id="0" precision="FP32">
					<dim>1</dim>
					<dim>1370</dim>
					<dim>384</dim>
				</port>
				<port id="1" precision="FP32">
					<dim>1</dim>
					<dim>1</dim>
					<dim>384</dim>
				</port>
			</input>
			<output>
				<port id="2" precision="FP32">
					<dim>1</dim>
					<dim>1370</dim>
					<dim>384</dim>
				</port>
			</output>
		</layer>
		<layer id="222" name="Constant_15362_compressed" type="Const" version="opset1">
			<data element_type="f16" shape="1, 1, 384" offset="3689778" size="768" />
			<output>
				<port id="0" precision="FP16">
					<dim>1</dim>
					<dim>1</dim>
					<dim>384</dim>
				</port>
			</output>
		</layer>
		<layer id="223" name="Constant_15362" type="Convert" version="opset1">
			<data destination_type="f32" />
			<rt_info>
				<attribute name="decompression" version="0" />
			</rt_info>
			<input>
				<port id="0" precision="FP16">
					<dim>1</dim>
					<dim>1</dim>
					<dim>384</dim>
				</port>
			</input>
			<output>
				<port id="1" precision="FP32">
					<dim>1</dim>
					<dim>1</dim>
					<dim>384</dim>
				</port>
			</output>
		</layer>
		<layer id="224" name="__module.pretrained.blocks.1.norm2/aten::layer_norm/Add" type="Add" version="opset1">
			<data auto_broadcast="numpy" />
			<input>
				<port id="0" precision="FP32">
					<dim>1</dim>
					<dim>1370</dim>
					<dim>384</dim>
				</port>
				<port id="1" precision="FP32">
					<dim>1</dim>
					<dim>1</dim>
					<dim>384</dim>
				</port>
			</input>
			<output>
				<port id="2" precision="FP32" names="310,input.31">
					<dim>1</dim>
					<dim>1370</dim>
					<dim>384</dim>
				</port>
			</output>
		</layer>
		<layer id="225" name="__module.pretrained.blocks.1.norm2/aten::layer_norm/Add_0_0/nncf_smooth_quant/scale" type="Const" version="opset1">
			<data element_type="f32" shape="1, 1, 384" offset="3690546" size="1536" />
			<output>
				<port id="0" precision="FP32">
					<dim>1</dim>
					<dim>1</dim>
					<dim>384</dim>
				</port>
			</output>
		</layer>
		<layer id="226" name="__module.pretrained.blocks.1.norm2/aten::layer_norm/Add_0_0/nncf_smooth_quant" type="Multiply" version="opset1">
			<data auto_broadcast="numpy" />
			<input>
				<port id="0" precision="FP32">
					<dim>1</dim>
					<dim>1370</dim>
					<dim>384</dim>
				</port>
				<port id="1" precision="FP32">
					<dim>1</dim>
					<dim>1</dim>
					<dim>384</dim>
				</port>
			</input>
			<output>
				<port id="2" precision="FP32">
					<dim>1</dim>
					<dim>1370</dim>
					<dim>384</dim>
				</port>
			</output>
		</layer>
		<layer id="227" name="__module.pretrained.blocks.1.norm2/aten::layer_norm/Add_0_0/nncf_smooth_quant/fq_output_0/input_low" type="Const" version="opset1">
			<data element_type="f32" shape="" offset="3692082" size="4" />
			<output>
				<port id="0" precision="FP32" />
			</output>
		</layer>
		<layer id="228" name="__module.pretrained.blocks.1.norm2/aten::layer_norm/Add_0_0/nncf_smooth_quant/fq_output_0/input_high" type="Const" version="opset1">
			<data element_type="f32" shape="" offset="3692086" size="4" />
			<output>
				<port id="0" precision="FP32" />
			</output>
		</layer>
		<layer id="229" name="__module.pretrained.blocks.1.norm2/aten::layer_norm/Add_0_0/nncf_smooth_quant/fq_output_0/output_low" type="Const" version="opset1">
			<data element_type="f32" shape="" offset="3692082" size="4" />
			<output>
				<port id="0" precision="FP32" />
			</output>
		</layer>
		<layer id="230" name="__module.pretrained.blocks.1.norm2/aten::layer_norm/Add_0_0/nncf_smooth_quant/fq_output_0/output_high" type="Const" version="opset1">
			<data element_type="f32" shape="" offset="3692086" size="4" />
			<output>
				<port id="0" precision="FP32" />
			</output>
		</layer>
		<layer id="231" name="__module.pretrained.blocks.1.norm2/aten::layer_norm/Add_0_0/nncf_smooth_quant/fq_output_0" type="FakeQuantize" version="opset1">
			<data levels="256" auto_broadcast="numpy" />
			<input>
				<port id="0" precision="FP32">
					<dim>1</dim>
					<dim>1370</dim>
					<dim>384</dim>
				</port>
				<port id="1" precision="FP32" />
				<port id="2" precision="FP32" />
				<port id="3" precision="FP32" />
				<port id="4" precision="FP32" />
			</input>
			<output>
				<port id="5" precision="FP32">
					<dim>1</dim>
					<dim>1370</dim>
					<dim>384</dim>
				</port>
			</output>
		</layer>
		<layer id="232" name="Constant_546484" type="Const" version="opset1">
			<data element_type="i8" shape="1536, 384" offset="3692090" size="589824" />
			<output>
				<port id="0" precision="I8">
					<dim>1536</dim>
					<dim>384</dim>
				</port>
			</output>
		</layer>
		<layer id="233" name="Convert_546485" type="Convert" version="opset1">
			<data destination_type="f32" />
			<input>
				<port id="0" precision="I8">
					<dim>1536</dim>
					<dim>384</dim>
				</port>
			</input>
			<output>
				<port id="1" precision="FP32">
					<dim>1536</dim>
					<dim>384</dim>
				</port>
			</output>
		</layer>
		<layer id="234" name="Constant_546486" type="Const" version="opset1">
			<data element_type="f32" shape="1536, 1" offset="4281914" size="6144" />
			<output>
				<port id="0" precision="FP32">
					<dim>1536</dim>
					<dim>1</dim>
				</port>
			</output>
		</layer>
		<layer id="235" name="__module.pretrained.blocks.1.mlp.fc1/aten::linear/MatMul/fq_weights_1" type="Multiply" version="opset1">
			<data auto_broadcast="numpy" />
			<input>
				<port id="0" precision="FP32">
					<dim>1536</dim>
					<dim>384</dim>
				</port>
				<port id="1" precision="FP32">
					<dim>1536</dim>
					<dim>1</dim>
				</port>
			</input>
			<output>
				<port id="2" precision="FP32">
					<dim>1536</dim>
					<dim>384</dim>
				</port>
			</output>
		</layer>
		<layer id="236" name="__module.pretrained.blocks.1.mlp.fc1/aten::linear/MatMul" type="MatMul" version="opset1">
			<data transpose_a="false" transpose_b="true" />
			<input>
				<port id="0" precision="FP32">
					<dim>1</dim>
					<dim>1370</dim>
					<dim>384</dim>
				</port>
				<port id="1" precision="FP32">
					<dim>1536</dim>
					<dim>384</dim>
				</port>
			</input>
			<output>
				<port id="2" precision="FP32">
					<dim>1</dim>
					<dim>1370</dim>
					<dim>1536</dim>
				</port>
			</output>
		</layer>
		<layer id="237" name="Constant_15363_compressed" type="Const" version="opset1">
			<data element_type="f16" shape="1, 1, 1536" offset="4288058" size="3072" />
			<output>
				<port id="0" precision="FP16">
					<dim>1</dim>
					<dim>1</dim>
					<dim>1536</dim>
				</port>
			</output>
		</layer>
		<layer id="238" name="Constant_15363" type="Convert" version="opset1">
			<data destination_type="f32" />
			<rt_info>
				<attribute name="decompression" version="0" />
			</rt_info>
			<input>
				<port id="0" precision="FP16">
					<dim>1</dim>
					<dim>1</dim>
					<dim>1536</dim>
				</port>
			</input>
			<output>
				<port id="1" precision="FP32">
					<dim>1</dim>
					<dim>1</dim>
					<dim>1536</dim>
				</port>
			</output>
		</layer>
		<layer id="239" name="__module.pretrained.blocks.1.mlp.fc1/aten::linear/Add" type="Add" version="opset1">
			<data auto_broadcast="numpy" />
			<input>
				<port id="0" precision="FP32">
					<dim>1</dim>
					<dim>1370</dim>
					<dim>1536</dim>
				</port>
				<port id="1" precision="FP32">
					<dim>1</dim>
					<dim>1</dim>
					<dim>1536</dim>
				</port>
			</input>
			<output>
				<port id="2" precision="FP32" names="317,input.33">
					<dim>1</dim>
					<dim>1370</dim>
					<dim>1536</dim>
				</port>
			</output>
		</layer>
		<layer id="240" name="__module.pretrained.blocks.1.mlp.act/aten::gelu/Gelu" type="Gelu" version="opset7">
			<data approximation_mode="ERF" />
			<input>
				<port id="0" precision="FP32">
					<dim>1</dim>
					<dim>1370</dim>
					<dim>1536</dim>
				</port>
			</input>
			<output>
				<port id="1" precision="FP32" names="318,input.35">
					<dim>1</dim>
					<dim>1370</dim>
					<dim>1536</dim>
				</port>
			</output>
		</layer>
		<layer id="241" name="__module.pretrained.blocks.1.mlp.act/aten::gelu/Gelu_0_0/nncf_smooth_quant/scale" type="Const" version="opset1">
			<data element_type="f32" shape="1, 1, 1536" offset="4291130" size="6144" />
			<output>
				<port id="0" precision="FP32">
					<dim>1</dim>
					<dim>1</dim>
					<dim>1536</dim>
				</port>
			</output>
		</layer>
		<layer id="242" name="__module.pretrained.blocks.1.mlp.act/aten::gelu/Gelu_0_0/nncf_smooth_quant" type="Multiply" version="opset1">
			<data auto_broadcast="numpy" />
			<input>
				<port id="0" precision="FP32">
					<dim>1</dim>
					<dim>1370</dim>
					<dim>1536</dim>
				</port>
				<port id="1" precision="FP32">
					<dim>1</dim>
					<dim>1</dim>
					<dim>1536</dim>
				</port>
			</input>
			<output>
				<port id="2" precision="FP32">
					<dim>1</dim>
					<dim>1370</dim>
					<dim>1536</dim>
				</port>
			</output>
		</layer>
		<layer id="243" name="__module.pretrained.blocks.1.mlp.act/aten::gelu/Gelu_0_0/nncf_smooth_quant/fq_output_0/input_low" type="Const" version="opset1">
			<data element_type="f32" shape="" offset="4297274" size="4" />
			<output>
				<port id="0" precision="FP32" />
			</output>
		</layer>
		<layer id="244" name="__module.pretrained.blocks.1.mlp.act/aten::gelu/Gelu_0_0/nncf_smooth_quant/fq_output_0/input_high" type="Const" version="opset1">
			<data element_type="f32" shape="" offset="4297278" size="4" />
			<output>
				<port id="0" precision="FP32" />
			</output>
		</layer>
		<layer id="245" name="__module.pretrained.blocks.1.mlp.act/aten::gelu/Gelu_0_0/nncf_smooth_quant/fq_output_0/output_low" type="Const" version="opset1">
			<data element_type="f32" shape="" offset="4297274" size="4" />
			<output>
				<port id="0" precision="FP32" />
			</output>
		</layer>
		<layer id="246" name="__module.pretrained.blocks.1.mlp.act/aten::gelu/Gelu_0_0/nncf_smooth_quant/fq_output_0/output_high" type="Const" version="opset1">
			<data element_type="f32" shape="" offset="4297278" size="4" />
			<output>
				<port id="0" precision="FP32" />
			</output>
		</layer>
		<layer id="247" name="__module.pretrained.blocks.1.mlp.act/aten::gelu/Gelu_0_0/nncf_smooth_quant/fq_output_0" type="FakeQuantize" version="opset1">
			<data levels="256" auto_broadcast="numpy" />
			<input>
				<port id="0" precision="FP32">
					<dim>1</dim>
					<dim>1370</dim>
					<dim>1536</dim>
				</port>
				<port id="1" precision="FP32" />
				<port id="2" precision="FP32" />
				<port id="3" precision="FP32" />
				<port id="4" precision="FP32" />
			</input>
			<output>
				<port id="5" precision="FP32">
					<dim>1</dim>
					<dim>1370</dim>
					<dim>1536</dim>
				</port>
			</output>
		</layer>
		<layer id="248" name="Constant_546489" type="Const" version="opset1">
			<data element_type="i8" shape="384, 1536" offset="4297282" size="589824" />
			<output>
				<port id="0" precision="I8">
					<dim>384</dim>
					<dim>1536</dim>
				</port>
			</output>
		</layer>
		<layer id="249" name="Convert_546490" type="Convert" version="opset1">
			<data destination_type="f32" />
			<input>
				<port id="0" precision="I8">
					<dim>384</dim>
					<dim>1536</dim>
				</port>
			</input>
			<output>
				<port id="1" precision="FP32">
					<dim>384</dim>
					<dim>1536</dim>
				</port>
			</output>
		</layer>
		<layer id="250" name="Constant_546491" type="Const" version="opset1">
			<data element_type="f32" shape="384, 1" offset="4887106" size="1536" />
			<output>
				<port id="0" precision="FP32">
					<dim>384</dim>
					<dim>1</dim>
				</port>
			</output>
		</layer>
		<layer id="251" name="Multiply_14886/fq_weights_1" type="Multiply" version="opset1">
			<data auto_broadcast="numpy" />
			<input>
				<port id="0" precision="FP32">
					<dim>384</dim>
					<dim>1536</dim>
				</port>
				<port id="1" precision="FP32">
					<dim>384</dim>
					<dim>1</dim>
				</port>
			</input>
			<output>
				<port id="2" precision="FP32">
					<dim>384</dim>
					<dim>1536</dim>
				</port>
			</output>
		</layer>
		<layer id="252" name="Multiply_14886" type="MatMul" version="opset1">
			<data transpose_a="false" transpose_b="true" />
			<input>
				<port id="0" precision="FP32">
					<dim>1</dim>
					<dim>1370</dim>
					<dim>1536</dim>
				</port>
				<port id="1" precision="FP32">
					<dim>384</dim>
					<dim>1536</dim>
				</port>
			</input>
			<output>
				<port id="2" precision="FP32">
					<dim>1</dim>
					<dim>1370</dim>
					<dim>384</dim>
				</port>
			</output>
		</layer>
		<layer id="253" name="Constant_15364_compressed" type="Const" version="opset1">
			<data element_type="f16" shape="1, 1, 384" offset="4888642" size="768" />
			<output>
				<port id="0" precision="FP16">
					<dim>1</dim>
					<dim>1</dim>
					<dim>384</dim>
				</port>
			</output>
		</layer>
		<layer id="254" name="Constant_15364" type="Convert" version="opset1">
			<data destination_type="f32" />
			<rt_info>
				<attribute name="decompression" version="0" />
			</rt_info>
			<input>
				<port id="0" precision="FP16">
					<dim>1</dim>
					<dim>1</dim>
					<dim>384</dim>
				</port>
			</input>
			<output>
				<port id="1" precision="FP32">
					<dim>1</dim>
					<dim>1</dim>
					<dim>384</dim>
				</port>
			</output>
		</layer>
		<layer id="255" name="__module.pretrained.blocks.1.ls2/aten::mul/Multiply" type="Add" version="opset1">
			<data auto_broadcast="numpy" />
			<input>
				<port id="0" precision="FP32">
					<dim>1</dim>
					<dim>1370</dim>
					<dim>384</dim>
				</port>
				<port id="1" precision="FP32">
					<dim>1</dim>
					<dim>1</dim>
					<dim>384</dim>
				</port>
			</input>
			<output>
				<port id="2" precision="FP32" names="325">
					<dim>1</dim>
					<dim>1370</dim>
					<dim>384</dim>
				</port>
			</output>
		</layer>
		<layer id="256" name="__module.pretrained.blocks.1/aten::add/Add_1" type="Add" version="opset1">
			<data auto_broadcast="numpy" />
			<input>
				<port id="0" precision="FP32">
					<dim>1</dim>
					<dim>1370</dim>
					<dim>384</dim>
				</port>
				<port id="1" precision="FP32">
					<dim>1</dim>
					<dim>1370</dim>
					<dim>384</dim>
				</port>
			</input>
			<output>
				<port id="2" precision="FP32" names="326,input.41">
					<dim>1</dim>
					<dim>1370</dim>
					<dim>384</dim>
				</port>
			</output>
		</layer>
		<layer id="257" name="__module.pretrained.blocks.2.norm1/aten::layer_norm/Constant" type="Const" version="opset1">
			<data element_type="i32" shape="1" offset="1281056" size="4" />
			<output>
				<port id="0" precision="I32">
					<dim>1</dim>
				</port>
			</output>
		</layer>
		<layer id="258" name="__module.pretrained.blocks.2.norm1/aten::layer_norm/MVN" type="MVN" version="opset6">
			<data eps="9.9999999747524271e-07" normalize_variance="true" eps_mode="INSIDE_SQRT" />
			<input>
				<port id="0" precision="FP32">
					<dim>1</dim>
					<dim>1370</dim>
					<dim>384</dim>
				</port>
				<port id="1" precision="I32">
					<dim>1</dim>
				</port>
			</input>
			<output>
				<port id="2" precision="FP32">
					<dim>1</dim>
					<dim>1370</dim>
					<dim>384</dim>
				</port>
			</output>
		</layer>
		<layer id="259" name="Constant_15365_compressed" type="Const" version="opset1">
			<data element_type="f16" shape="1, 1, 384" offset="4889410" size="768" />
			<output>
				<port id="0" precision="FP16">
					<dim>1</dim>
					<dim>1</dim>
					<dim>384</dim>
				</port>
			</output>
		</layer>
		<layer id="260" name="Constant_15365" type="Convert" version="opset1">
			<data destination_type="f32" />
			<rt_info>
				<attribute name="decompression" version="0" />
			</rt_info>
			<input>
				<port id="0" precision="FP16">
					<dim>1</dim>
					<dim>1</dim>
					<dim>384</dim>
				</port>
			</input>
			<output>
				<port id="1" precision="FP32">
					<dim>1</dim>
					<dim>1</dim>
					<dim>384</dim>
				</port>
			</output>
		</layer>
		<layer id="261" name="__module.pretrained.blocks.2.norm1/aten::layer_norm/Multiply" type="Multiply" version="opset1">
			<data auto_broadcast="numpy" />
			<input>
				<port id="0" precision="FP32">
					<dim>1</dim>
					<dim>1370</dim>
					<dim>384</dim>
				</port>
				<port id="1" precision="FP32">
					<dim>1</dim>
					<dim>1</dim>
					<dim>384</dim>
				</port>
			</input>
			<output>
				<port id="2" precision="FP32">
					<dim>1</dim>
					<dim>1370</dim>
					<dim>384</dim>
				</port>
			</output>
		</layer>
		<layer id="262" name="Constant_15366_compressed" type="Const" version="opset1">
			<data element_type="f16" shape="1, 1, 384" offset="4890178" size="768" />
			<output>
				<port id="0" precision="FP16">
					<dim>1</dim>
					<dim>1</dim>
					<dim>384</dim>
				</port>
			</output>
		</layer>
		<layer id="263" name="Constant_15366" type="Convert" version="opset1">
			<data destination_type="f32" />
			<rt_info>
				<attribute name="decompression" version="0" />
			</rt_info>
			<input>
				<port id="0" precision="FP16">
					<dim>1</dim>
					<dim>1</dim>
					<dim>384</dim>
				</port>
			</input>
			<output>
				<port id="1" precision="FP32">
					<dim>1</dim>
					<dim>1</dim>
					<dim>384</dim>
				</port>
			</output>
		</layer>
		<layer id="264" name="__module.pretrained.blocks.2.norm1/aten::layer_norm/Add" type="Add" version="opset1">
			<data auto_broadcast="numpy" />
			<input>
				<port id="0" precision="FP32">
					<dim>1</dim>
					<dim>1370</dim>
					<dim>384</dim>
				</port>
				<port id="1" precision="FP32">
					<dim>1</dim>
					<dim>1</dim>
					<dim>384</dim>
				</port>
			</input>
			<output>
				<port id="2" precision="FP32" names="353,x.21">
					<dim>1</dim>
					<dim>1370</dim>
					<dim>384</dim>
				</port>
			</output>
		</layer>
		<layer id="265" name="__module.pretrained.blocks.2.norm1/aten::layer_norm/Add_0_0/nncf_smooth_quant/scale" type="Const" version="opset1">
			<data element_type="f32" shape="1, 1, 384" offset="4890946" size="1536" />
			<output>
				<port id="0" precision="FP32">
					<dim>1</dim>
					<dim>1</dim>
					<dim>384</dim>
				</port>
			</output>
		</layer>
		<layer id="266" name="__module.pretrained.blocks.2.norm1/aten::layer_norm/Add_0_0/nncf_smooth_quant" type="Multiply" version="opset1">
			<data auto_broadcast="numpy" />
			<input>
				<port id="0" precision="FP32">
					<dim>1</dim>
					<dim>1370</dim>
					<dim>384</dim>
				</port>
				<port id="1" precision="FP32">
					<dim>1</dim>
					<dim>1</dim>
					<dim>384</dim>
				</port>
			</input>
			<output>
				<port id="2" precision="FP32">
					<dim>1</dim>
					<dim>1370</dim>
					<dim>384</dim>
				</port>
			</output>
		</layer>
		<layer id="267" name="__module.pretrained.blocks.2.norm1/aten::layer_norm/Add_0_0/nncf_smooth_quant/fq_output_0/input_low" type="Const" version="opset1">
			<data element_type="f32" shape="" offset="4892482" size="4" />
			<output>
				<port id="0" precision="FP32" />
			</output>
		</layer>
		<layer id="268" name="__module.pretrained.blocks.2.norm1/aten::layer_norm/Add_0_0/nncf_smooth_quant/fq_output_0/input_high" type="Const" version="opset1">
			<data element_type="f32" shape="" offset="4892486" size="4" />
			<output>
				<port id="0" precision="FP32" />
			</output>
		</layer>
		<layer id="269" name="__module.pretrained.blocks.2.norm1/aten::layer_norm/Add_0_0/nncf_smooth_quant/fq_output_0/output_low" type="Const" version="opset1">
			<data element_type="f32" shape="" offset="4892482" size="4" />
			<output>
				<port id="0" precision="FP32" />
			</output>
		</layer>
		<layer id="270" name="__module.pretrained.blocks.2.norm1/aten::layer_norm/Add_0_0/nncf_smooth_quant/fq_output_0/output_high" type="Const" version="opset1">
			<data element_type="f32" shape="" offset="4892486" size="4" />
			<output>
				<port id="0" precision="FP32" />
			</output>
		</layer>
		<layer id="271" name="__module.pretrained.blocks.2.norm1/aten::layer_norm/Add_0_0/nncf_smooth_quant/fq_output_0" type="FakeQuantize" version="opset1">
			<data levels="256" auto_broadcast="numpy" />
			<input>
				<port id="0" precision="FP32">
					<dim>1</dim>
					<dim>1370</dim>
					<dim>384</dim>
				</port>
				<port id="1" precision="FP32" />
				<port id="2" precision="FP32" />
				<port id="3" precision="FP32" />
				<port id="4" precision="FP32" />
			</input>
			<output>
				<port id="5" precision="FP32">
					<dim>1</dim>
					<dim>1370</dim>
					<dim>384</dim>
				</port>
			</output>
		</layer>
		<layer id="272" name="Constant_546494" type="Const" version="opset1">
			<data element_type="i8" shape="1152, 384" offset="4892490" size="442368" />
			<output>
				<port id="0" precision="I8">
					<dim>1152</dim>
					<dim>384</dim>
				</port>
			</output>
		</layer>
		<layer id="273" name="Convert_546495" type="Convert" version="opset1">
			<data destination_type="f32" />
			<input>
				<port id="0" precision="I8">
					<dim>1152</dim>
					<dim>384</dim>
				</port>
			</input>
			<output>
				<port id="1" precision="FP32">
					<dim>1152</dim>
					<dim>384</dim>
				</port>
			</output>
		</layer>
		<layer id="274" name="Constant_546496" type="Const" version="opset1">
			<data element_type="f32" shape="1152, 1" offset="5334858" size="4608" />
			<output>
				<port id="0" precision="FP32">
					<dim>1152</dim>
					<dim>1</dim>
				</port>
			</output>
		</layer>
		<layer id="275" name="__module.pretrained.blocks.2.attn.qkv/aten::linear/MatMul/fq_weights_1" type="Multiply" version="opset1">
			<data auto_broadcast="numpy" />
			<input>
				<port id="0" precision="FP32">
					<dim>1152</dim>
					<dim>384</dim>
				</port>
				<port id="1" precision="FP32">
					<dim>1152</dim>
					<dim>1</dim>
				</port>
			</input>
			<output>
				<port id="2" precision="FP32">
					<dim>1152</dim>
					<dim>384</dim>
				</port>
			</output>
		</layer>
		<layer id="276" name="__module.pretrained.blocks.2.attn.qkv/aten::linear/MatMul" type="MatMul" version="opset1">
			<data transpose_a="false" transpose_b="true" />
			<input>
				<port id="0" precision="FP32">
					<dim>1</dim>
					<dim>1370</dim>
					<dim>384</dim>
				</port>
				<port id="1" precision="FP32">
					<dim>1152</dim>
					<dim>384</dim>
				</port>
			</input>
			<output>
				<port id="2" precision="FP32">
					<dim>1</dim>
					<dim>1370</dim>
					<dim>1152</dim>
				</port>
			</output>
		</layer>
		<layer id="277" name="Constant_15367_compressed" type="Const" version="opset1">
			<data element_type="f16" shape="1, 1, 1152" offset="5339466" size="2304" />
			<output>
				<port id="0" precision="FP16">
					<dim>1</dim>
					<dim>1</dim>
					<dim>1152</dim>
				</port>
			</output>
		</layer>
		<layer id="278" name="Constant_15367" type="Convert" version="opset1">
			<data destination_type="f32" />
			<rt_info>
				<attribute name="decompression" version="0" />
			</rt_info>
			<input>
				<port id="0" precision="FP16">
					<dim>1</dim>
					<dim>1</dim>
					<dim>1152</dim>
				</port>
			</input>
			<output>
				<port id="1" precision="FP32">
					<dim>1</dim>
					<dim>1</dim>
					<dim>1152</dim>
				</port>
			</output>
		</layer>
		<layer id="279" name="__module.pretrained.blocks.2.attn.qkv/aten::linear/Add" type="Add" version="opset1">
			<data auto_broadcast="numpy" />
			<input>
				<port id="0" precision="FP32">
					<dim>1</dim>
					<dim>1370</dim>
					<dim>1152</dim>
				</port>
				<port id="1" precision="FP32">
					<dim>1</dim>
					<dim>1</dim>
					<dim>1152</dim>
				</port>
			</input>
			<output>
				<port id="2" precision="FP32" names="362">
					<dim>1</dim>
					<dim>1370</dim>
					<dim>1152</dim>
				</port>
			</output>
		</layer>
		<layer id="280" name="__module.pretrained.blocks.2.attn/aten::size/ShapeOf" type="ShapeOf" version="opset3">
			<data output_type="i64" />
			<input>
				<port id="0" precision="FP32">
					<dim>1</dim>
					<dim>1370</dim>
					<dim>384</dim>
				</port>
			</input>
			<output>
				<port id="1" precision="I64">
					<dim>3</dim>
				</port>
			</output>
		</layer>
		<layer id="281" name="Constant_13167" type="Const" version="opset1">
			<data element_type="i64" shape="2" offset="3537646" size="16" />
			<rt_info>
				<attribute name="precise" version="0" />
			</rt_info>
			<output>
				<port id="0" precision="I64">
					<dim>2</dim>
				</port>
			</output>
		</layer>
		<layer id="282" name="Constant_13168" type="Const" version="opset1">
			<data element_type="i64" shape="" offset="1733500" size="8" />
			<rt_info>
				<attribute name="precise" version="0" />
			</rt_info>
			<output>
				<port id="0" precision="I64" />
			</output>
		</layer>
		<layer id="283" name="Gather_13169" type="Gather" version="opset8">
			<data batch_dims="0" />
			<input>
				<port id="0" precision="I64">
					<dim>3</dim>
				</port>
				<port id="1" precision="I64">
					<dim>2</dim>
				</port>
				<port id="2" precision="I64" />
			</input>
			<output>
				<port id="3" precision="I64">
					<dim>2</dim>
				</port>
			</output>
		</layer>
		<layer id="284" name="__module.pretrained.blocks.2.attn/prim::ListConstruct/Reshape_1" type="Const" version="opset1">
			<data element_type="i64" shape="1" offset="3537662" size="8" />
			<rt_info>
				<attribute name="precise" version="0" />
			</rt_info>
			<output>
				<port id="0" precision="I64">
					<dim>1</dim>
				</port>
			</output>
		</layer>
		<layer id="285" name="__module.pretrained.blocks.2.attn/prim::ListConstruct/Reshape_2" type="Const" version="opset1">
			<data element_type="i64" shape="1" offset="3537670" size="8" />
			<rt_info>
				<attribute name="precise" version="0" />
			</rt_info>
			<output>
				<port id="0" precision="I64">
					<dim>1</dim>
				</port>
			</output>
		</layer>
		<layer id="286" name="330" type="Const" version="opset1">
			<data element_type="i64" shape="" offset="1733534" size="8" />
			<rt_info>
				<attribute name="precise" version="0" />
			</rt_info>
			<output>
				<port id="0" precision="I64" names="330" />
			</output>
		</layer>
		<layer id="287" name="__module.pretrained.blocks.2.attn/aten::size/Constant_2" type="Const" version="opset1">
			<data element_type="i32" shape="" offset="3537678" size="4" />
			<rt_info>
				<attribute name="precise" version="0" />
			</rt_info>
			<output>
				<port id="0" precision="I32" />
			</output>
		</layer>
		<layer id="288" name="__module.pretrained.blocks.2.attn/aten::size/Gather_2" type="Gather" version="opset8">
			<data batch_dims="0" />
			<input>
				<port id="0" precision="I64">
					<dim>3</dim>
				</port>
				<port id="1" precision="I64" />
				<port id="2" precision="I32" />
			</input>
			<output>
				<port id="3" precision="I64" names="358" />
			</output>
		</layer>
		<layer id="289" name="Constant_706" type="Const" version="opset1">
			<data element_type="i64" shape="" offset="3537670" size="8" />
			<rt_info>
				<attribute name="precise" version="0" />
			</rt_info>
			<output>
				<port id="0" precision="I64" names="331" />
			</output>
		</layer>
		<layer id="290" name="__module.pretrained.blocks.2.attn/aten::floor_divide/Divide" type="Divide" version="opset1">
			<data auto_broadcast="numpy" m_pythondiv="true" />
			<input>
				<port id="0" precision="I64" />
				<port id="1" precision="I64" />
			</input>
			<output>
				<port id="2" precision="I64" />
			</output>
		</layer>
		<layer id="291" name="__module.pretrained.blocks.2.attn/aten::floor_divide/Floor" type="Floor" version="opset1">
			<input>
				<port id="0" precision="I64" />
			</input>
			<output>
				<port id="1" precision="I64" names="363,364" />
			</output>
		</layer>
		<layer id="292" name="Constant_8909" type="Const" version="opset1">
			<data element_type="i64" shape="1" offset="3537682" size="8" />
			<rt_info>
				<attribute name="precise" version="0" />
			</rt_info>
			<output>
				<port id="0" precision="I64">
					<dim>1</dim>
				</port>
			</output>
		</layer>
		<layer id="293" name="__module.pretrained.blocks.2.attn/prim::ListConstruct/Reshape_3" type="Reshape" version="opset1">
			<data special_zero="false" />
			<input>
				<port id="0" precision="I64" />
				<port id="1" precision="I64">
					<dim>1</dim>
				</port>
			</input>
			<output>
				<port id="2" precision="I64">
					<dim>1</dim>
				</port>
			</output>
		</layer>
		<layer id="294" name="__module.pretrained.blocks.2.attn/prim::ListConstruct/Concat" type="Concat" version="opset1">
			<data axis="0" />
			<input>
				<port id="0" precision="I64">
					<dim>2</dim>
				</port>
				<port id="1" precision="I64">
					<dim>1</dim>
				</port>
				<port id="2" precision="I64">
					<dim>1</dim>
				</port>
				<port id="3" precision="I64">
					<dim>1</dim>
				</port>
			</input>
			<output>
				<port id="4" precision="I64" names="365">
					<dim>5</dim>
				</port>
			</output>
		</layer>
		<layer id="295" name="__module.pretrained.blocks.2.attn/aten::reshape/Reshape" type="Reshape" version="opset1">
			<data special_zero="false" />
			<input>
				<port id="0" precision="FP32">
					<dim>1</dim>
					<dim>1370</dim>
					<dim>1152</dim>
				</port>
				<port id="1" precision="I64">
					<dim>5</dim>
				</port>
			</input>
			<output>
				<port id="2" precision="FP32" names="366">
					<dim>1</dim>
					<dim>1370</dim>
					<dim>3</dim>
					<dim>6</dim>
					<dim>64</dim>
				</port>
			</output>
		</layer>
		<layer id="296" name="Constant_770" type="Const" version="opset1">
			<data element_type="i64" shape="5" offset="1733460" size="40" />
			<output>
				<port id="0" precision="I64" names="367">
					<dim>5</dim>
				</port>
			</output>
		</layer>
		<layer id="297" name="__module.pretrained.blocks.2.attn/aten::permute/Transpose" type="Transpose" version="opset1">
			<input>
				<port id="0" precision="FP32">
					<dim>1</dim>
					<dim>1370</dim>
					<dim>3</dim>
					<dim>6</dim>
					<dim>64</dim>
				</port>
				<port id="1" precision="I64">
					<dim>5</dim>
				</port>
			</input>
			<output>
				<port id="2" precision="FP32" names="368,qkv.5">
					<dim>3</dim>
					<dim>1</dim>
					<dim>6</dim>
					<dim>1370</dim>
					<dim>64</dim>
				</port>
			</output>
		</layer>
		<layer id="298" name="328" type="Const" version="opset1">
			<data element_type="i64" shape="" offset="1733500" size="8" />
			<output>
				<port id="0" precision="I64" names="328" />
			</output>
		</layer>
		<layer id="299" name="__module.pretrained.blocks.2.attn/aten::select/Gather" type="Gather" version="opset8">
			<data batch_dims="0" />
			<input>
				<port id="0" precision="FP32">
					<dim>3</dim>
					<dim>1</dim>
					<dim>6</dim>
					<dim>1370</dim>
					<dim>64</dim>
				</port>
				<port id="1" precision="I64" />
				<port id="2" precision="I64" />
			</input>
			<output>
				<port id="3" precision="FP32" names="369">
					<dim>1</dim>
					<dim>6</dim>
					<dim>1370</dim>
					<dim>64</dim>
				</port>
			</output>
		</layer>
		<layer id="300" name="Constant_15368_compressed" type="Const" version="opset1">
			<data element_type="f16" shape="1, 1, 1, 1" offset="1733508" size="2" />
			<output>
				<port id="0" precision="FP16">
					<dim>1</dim>
					<dim>1</dim>
					<dim>1</dim>
					<dim>1</dim>
				</port>
			</output>
		</layer>
		<layer id="301" name="Constant_15368" type="Convert" version="opset1">
			<data destination_type="f32" />
			<rt_info>
				<attribute name="decompression" version="0" />
			</rt_info>
			<input>
				<port id="0" precision="FP16">
					<dim>1</dim>
					<dim>1</dim>
					<dim>1</dim>
					<dim>1</dim>
				</port>
			</input>
			<output>
				<port id="1" precision="FP32">
					<dim>1</dim>
					<dim>1</dim>
					<dim>1</dim>
					<dim>1</dim>
				</port>
			</output>
		</layer>
		<layer id="302" name="__module.pretrained.blocks.2.attn/aten::mul/Multiply" type="Multiply" version="opset1">
			<data auto_broadcast="numpy" />
			<input>
				<port id="0" precision="FP32">
					<dim>1</dim>
					<dim>6</dim>
					<dim>1370</dim>
					<dim>64</dim>
				</port>
				<port id="1" precision="FP32">
					<dim>1</dim>
					<dim>1</dim>
					<dim>1</dim>
					<dim>1</dim>
				</port>
			</input>
			<output>
				<port id="2" precision="FP32" names="370,q.5">
					<dim>1</dim>
					<dim>6</dim>
					<dim>1370</dim>
					<dim>64</dim>
				</port>
			</output>
		</layer>
		<layer id="303" name="__module.pretrained.blocks.2.attn/aten::mul/Multiply/fq_output_0/input_low" type="Const" version="opset1">
			<data element_type="f32" shape="" offset="5341770" size="4" />
			<output>
				<port id="0" precision="FP32" />
			</output>
		</layer>
		<layer id="304" name="__module.pretrained.blocks.2.attn/aten::mul/Multiply/fq_output_0/input_high" type="Const" version="opset1">
			<data element_type="f32" shape="" offset="5341774" size="4" />
			<output>
				<port id="0" precision="FP32" />
			</output>
		</layer>
		<layer id="305" name="__module.pretrained.blocks.2.attn/aten::mul/Multiply/fq_output_0/output_low" type="Const" version="opset1">
			<data element_type="f32" shape="" offset="5341770" size="4" />
			<output>
				<port id="0" precision="FP32" />
			</output>
		</layer>
		<layer id="306" name="__module.pretrained.blocks.2.attn/aten::mul/Multiply/fq_output_0/output_high" type="Const" version="opset1">
			<data element_type="f32" shape="" offset="5341774" size="4" />
			<output>
				<port id="0" precision="FP32" />
			</output>
		</layer>
		<layer id="307" name="__module.pretrained.blocks.2.attn/aten::mul/Multiply/fq_output_0" type="FakeQuantize" version="opset1">
			<data levels="256" auto_broadcast="numpy" />
			<input>
				<port id="0" precision="FP32">
					<dim>1</dim>
					<dim>6</dim>
					<dim>1370</dim>
					<dim>64</dim>
				</port>
				<port id="1" precision="FP32" />
				<port id="2" precision="FP32" />
				<port id="3" precision="FP32" />
				<port id="4" precision="FP32" />
			</input>
			<output>
				<port id="5" precision="FP32">
					<dim>1</dim>
					<dim>6</dim>
					<dim>1370</dim>
					<dim>64</dim>
				</port>
			</output>
		</layer>
		<layer id="308" name="__module.pretrained.blocks.2.attn/aten::select/Gather_1/fq_input_0/input_low" type="Const" version="opset1">
			<data element_type="f32" shape="" offset="5341778" size="4" />
			<output>
				<port id="0" precision="FP32" />
			</output>
		</layer>
		<layer id="309" name="__module.pretrained.blocks.2.attn/aten::select/Gather_1/fq_input_0/input_high" type="Const" version="opset1">
			<data element_type="f32" shape="" offset="5341782" size="4" />
			<output>
				<port id="0" precision="FP32" />
			</output>
		</layer>
		<layer id="310" name="__module.pretrained.blocks.2.attn/aten::select/Gather_1/fq_input_0/output_low" type="Const" version="opset1">
			<data element_type="f32" shape="" offset="5341778" size="4" />
			<output>
				<port id="0" precision="FP32" />
			</output>
		</layer>
		<layer id="311" name="__module.pretrained.blocks.2.attn/aten::select/Gather_1/fq_input_0/output_high" type="Const" version="opset1">
			<data element_type="f32" shape="" offset="5341782" size="4" />
			<output>
				<port id="0" precision="FP32" />
			</output>
		</layer>
		<layer id="312" name="__module.pretrained.blocks.2.attn/aten::select/Gather_1/fq_input_0" type="FakeQuantize" version="opset1">
			<data levels="256" auto_broadcast="numpy" />
			<input>
				<port id="0" precision="FP32">
					<dim>3</dim>
					<dim>1</dim>
					<dim>6</dim>
					<dim>1370</dim>
					<dim>64</dim>
				</port>
				<port id="1" precision="FP32" />
				<port id="2" precision="FP32" />
				<port id="3" precision="FP32" />
				<port id="4" precision="FP32" />
			</input>
			<output>
				<port id="5" precision="FP32">
					<dim>3</dim>
					<dim>1</dim>
					<dim>6</dim>
					<dim>1370</dim>
					<dim>64</dim>
				</port>
			</output>
		</layer>
		<layer id="313" name="329" type="Const" version="opset1">
			<data element_type="i64" shape="" offset="1733526" size="8" />
			<output>
				<port id="0" precision="I64" names="329" />
			</output>
		</layer>
		<layer id="314" name="__module.pretrained.blocks.2.attn/aten::select/Gather_1" type="Gather" version="opset8">
			<data batch_dims="0" />
			<input>
				<port id="0" precision="FP32">
					<dim>3</dim>
					<dim>1</dim>
					<dim>6</dim>
					<dim>1370</dim>
					<dim>64</dim>
				</port>
				<port id="1" precision="I64" />
				<port id="2" precision="I64" />
			</input>
			<output>
				<port id="3" precision="FP32" names="371,k.5">
					<dim>1</dim>
					<dim>6</dim>
					<dim>1370</dim>
					<dim>64</dim>
				</port>
			</output>
		</layer>
		<layer id="315" name="__module.pretrained.blocks.2.attn/aten::matmul/MatMul" type="MatMul" version="opset1">
			<data transpose_a="false" transpose_b="true" />
			<input>
				<port id="0" precision="FP32">
					<dim>1</dim>
					<dim>6</dim>
					<dim>1370</dim>
					<dim>64</dim>
				</port>
				<port id="1" precision="FP32">
					<dim>1</dim>
					<dim>6</dim>
					<dim>1370</dim>
					<dim>64</dim>
				</port>
			</input>
			<output>
				<port id="2" precision="FP32" names="374,attn.9">
					<dim>1</dim>
					<dim>6</dim>
					<dim>1370</dim>
					<dim>1370</dim>
				</port>
			</output>
		</layer>
		<layer id="316" name="__module.pretrained.blocks.2.attn/aten::softmax/Softmax" type="SoftMax" version="opset8">
			<data axis="-1" />
			<input>
				<port id="0" precision="FP32">
					<dim>1</dim>
					<dim>6</dim>
					<dim>1370</dim>
					<dim>1370</dim>
				</port>
			</input>
			<output>
				<port id="1" precision="FP32" names="375,input.43">
					<dim>1</dim>
					<dim>6</dim>
					<dim>1370</dim>
					<dim>1370</dim>
				</port>
			</output>
		</layer>
		<layer id="317" name="__module.pretrained.blocks.2.attn/aten::select/Gather_2" type="Gather" version="opset8">
			<data batch_dims="0" />
			<input>
				<port id="0" precision="FP32">
					<dim>3</dim>
					<dim>1</dim>
					<dim>6</dim>
					<dim>1370</dim>
					<dim>64</dim>
				</port>
				<port id="1" precision="I64" />
				<port id="2" precision="I64" />
			</input>
			<output>
				<port id="3" precision="FP32" names="372,v.5">
					<dim>1</dim>
					<dim>6</dim>
					<dim>1370</dim>
					<dim>64</dim>
				</port>
			</output>
		</layer>
		<layer id="318" name="__module.pretrained.blocks.2.attn/aten::matmul/MatMul_1" type="MatMul" version="opset1">
			<data transpose_a="false" transpose_b="false" />
			<input>
				<port id="0" precision="FP32">
					<dim>1</dim>
					<dim>6</dim>
					<dim>1370</dim>
					<dim>1370</dim>
				</port>
				<port id="1" precision="FP32">
					<dim>1</dim>
					<dim>6</dim>
					<dim>1370</dim>
					<dim>64</dim>
				</port>
			</input>
			<output>
				<port id="2" precision="FP32" names="377">
					<dim>1</dim>
					<dim>6</dim>
					<dim>1370</dim>
					<dim>64</dim>
				</port>
			</output>
		</layer>
		<layer id="319" name="__module.pretrained.blocks.2.attn/aten::transpose/ScatterElementsUpdate_1" type="Const" version="opset1">
			<data element_type="i32" shape="4" offset="1733542" size="16" />
			<output>
				<port id="0" precision="I32">
					<dim>4</dim>
				</port>
			</output>
		</layer>
		<layer id="320" name="__module.pretrained.blocks.2.attn/aten::transpose/Transpose_1" type="Transpose" version="opset1">
			<input>
				<port id="0" precision="FP32">
					<dim>1</dim>
					<dim>6</dim>
					<dim>1370</dim>
					<dim>64</dim>
				</port>
				<port id="1" precision="I32">
					<dim>4</dim>
				</port>
			</input>
			<output>
				<port id="2" precision="FP32" names="378">
					<dim>1</dim>
					<dim>1370</dim>
					<dim>6</dim>
					<dim>64</dim>
				</port>
			</output>
		</layer>
		<layer id="321" name="Constant_8910" type="Const" version="opset1">
			<data element_type="i64" shape="1" offset="3537682" size="8" />
			<rt_info>
				<attribute name="precise" version="0" />
			</rt_info>
			<output>
				<port id="0" precision="I64">
					<dim>1</dim>
				</port>
			</output>
		</layer>
		<layer id="322" name="__module.pretrained.blocks.2.attn/prim::ListConstruct/Reshape_1_1" type="Reshape" version="opset1">
			<data special_zero="false" />
			<input>
				<port id="0" precision="I64" />
				<port id="1" precision="I64">
					<dim>1</dim>
				</port>
			</input>
			<output>
				<port id="2" precision="I64">
					<dim>1</dim>
				</port>
			</output>
		</layer>
		<layer id="323" name="__module.pretrained.blocks.2.attn/prim::ListConstruct/Concat_1" type="Concat" version="opset1">
			<data axis="0" />
			<input>
				<port id="0" precision="I64">
					<dim>2</dim>
				</port>
				<port id="1" precision="I64">
					<dim>1</dim>
				</port>
			</input>
			<output>
				<port id="2" precision="I64" names="379">
					<dim>3</dim>
				</port>
			</output>
		</layer>
		<layer id="324" name="__module.pretrained.blocks.2.attn/aten::reshape/Reshape_1" type="Reshape" version="opset1">
			<data special_zero="false" />
			<input>
				<port id="0" precision="FP32">
					<dim>1</dim>
					<dim>1370</dim>
					<dim>6</dim>
					<dim>64</dim>
				</port>
				<port id="1" precision="I64">
					<dim>3</dim>
				</port>
			</input>
			<output>
				<port id="2" precision="FP32" names="380,input.45">
					<dim>1</dim>
					<dim>1370</dim>
					<dim>384</dim>
				</port>
			</output>
		</layer>
		<layer id="325" name="__module.pretrained.blocks.2.attn/aten::reshape/Reshape_1_0_0/nncf_smooth_quant/scale" type="Const" version="opset1">
			<data element_type="f32" shape="1, 1, 384" offset="5341786" size="1536" />
			<output>
				<port id="0" precision="FP32">
					<dim>1</dim>
					<dim>1</dim>
					<dim>384</dim>
				</port>
			</output>
		</layer>
		<layer id="326" name="__module.pretrained.blocks.2.attn/aten::reshape/Reshape_1_0_0/nncf_smooth_quant" type="Multiply" version="opset1">
			<data auto_broadcast="numpy" />
			<input>
				<port id="0" precision="FP32">
					<dim>1</dim>
					<dim>1370</dim>
					<dim>384</dim>
				</port>
				<port id="1" precision="FP32">
					<dim>1</dim>
					<dim>1</dim>
					<dim>384</dim>
				</port>
			</input>
			<output>
				<port id="2" precision="FP32">
					<dim>1</dim>
					<dim>1370</dim>
					<dim>384</dim>
				</port>
			</output>
		</layer>
		<layer id="327" name="__module.pretrained.blocks.2.attn/aten::reshape/Reshape_1_0_0/nncf_smooth_quant/fq_output_0/input_low" type="Const" version="opset1">
			<data element_type="f32" shape="" offset="5343322" size="4" />
			<output>
				<port id="0" precision="FP32" />
			</output>
		</layer>
		<layer id="328" name="__module.pretrained.blocks.2.attn/aten::reshape/Reshape_1_0_0/nncf_smooth_quant/fq_output_0/input_high" type="Const" version="opset1">
			<data element_type="f32" shape="" offset="5343326" size="4" />
			<output>
				<port id="0" precision="FP32" />
			</output>
		</layer>
		<layer id="329" name="__module.pretrained.blocks.2.attn/aten::reshape/Reshape_1_0_0/nncf_smooth_quant/fq_output_0/output_low" type="Const" version="opset1">
			<data element_type="f32" shape="" offset="5343322" size="4" />
			<output>
				<port id="0" precision="FP32" />
			</output>
		</layer>
		<layer id="330" name="__module.pretrained.blocks.2.attn/aten::reshape/Reshape_1_0_0/nncf_smooth_quant/fq_output_0/output_high" type="Const" version="opset1">
			<data element_type="f32" shape="" offset="5343326" size="4" />
			<output>
				<port id="0" precision="FP32" />
			</output>
		</layer>
		<layer id="331" name="__module.pretrained.blocks.2.attn/aten::reshape/Reshape_1_0_0/nncf_smooth_quant/fq_output_0" type="FakeQuantize" version="opset1">
			<data levels="256" auto_broadcast="numpy" />
			<input>
				<port id="0" precision="FP32">
					<dim>1</dim>
					<dim>1370</dim>
					<dim>384</dim>
				</port>
				<port id="1" precision="FP32" />
				<port id="2" precision="FP32" />
				<port id="3" precision="FP32" />
				<port id="4" precision="FP32" />
			</input>
			<output>
				<port id="5" precision="FP32">
					<dim>1</dim>
					<dim>1370</dim>
					<dim>384</dim>
				</port>
			</output>
		</layer>
		<layer id="332" name="Constant_546499" type="Const" version="opset1">
			<data element_type="i8" shape="384, 384" offset="5343330" size="147456" />
			<output>
				<port id="0" precision="I8">
					<dim>384</dim>
					<dim>384</dim>
				</port>
			</output>
		</layer>
		<layer id="333" name="Convert_546500" type="Convert" version="opset1">
			<data destination_type="f32" />
			<input>
				<port id="0" precision="I8">
					<dim>384</dim>
					<dim>384</dim>
				</port>
			</input>
			<output>
				<port id="1" precision="FP32">
					<dim>384</dim>
					<dim>384</dim>
				</port>
			</output>
		</layer>
		<layer id="334" name="Constant_546501" type="Const" version="opset1">
			<data element_type="f32" shape="384, 1" offset="5490786" size="1536" />
			<output>
				<port id="0" precision="FP32">
					<dim>384</dim>
					<dim>1</dim>
				</port>
			</output>
		</layer>
		<layer id="335" name="Multiply_14890/fq_weights_1" type="Multiply" version="opset1">
			<data auto_broadcast="numpy" />
			<input>
				<port id="0" precision="FP32">
					<dim>384</dim>
					<dim>384</dim>
				</port>
				<port id="1" precision="FP32">
					<dim>384</dim>
					<dim>1</dim>
				</port>
			</input>
			<output>
				<port id="2" precision="FP32">
					<dim>384</dim>
					<dim>384</dim>
				</port>
			</output>
		</layer>
		<layer id="336" name="Multiply_14890" type="MatMul" version="opset1">
			<data transpose_a="false" transpose_b="true" />
			<input>
				<port id="0" precision="FP32">
					<dim>1</dim>
					<dim>1370</dim>
					<dim>384</dim>
				</port>
				<port id="1" precision="FP32">
					<dim>384</dim>
					<dim>384</dim>
				</port>
			</input>
			<output>
				<port id="2" precision="FP32">
					<dim>1</dim>
					<dim>1370</dim>
					<dim>384</dim>
				</port>
			</output>
		</layer>
		<layer id="337" name="Constant_15369_compressed" type="Const" version="opset1">
			<data element_type="f16" shape="1, 1, 384" offset="5492322" size="768" />
			<output>
				<port id="0" precision="FP16">
					<dim>1</dim>
					<dim>1</dim>
					<dim>384</dim>
				</port>
			</output>
		</layer>
		<layer id="338" name="Constant_15369" type="Convert" version="opset1">
			<data destination_type="f32" />
			<rt_info>
				<attribute name="decompression" version="0" />
			</rt_info>
			<input>
				<port id="0" precision="FP16">
					<dim>1</dim>
					<dim>1</dim>
					<dim>384</dim>
				</port>
			</input>
			<output>
				<port id="1" precision="FP32">
					<dim>1</dim>
					<dim>1</dim>
					<dim>384</dim>
				</port>
			</output>
		</layer>
		<layer id="339" name="__module.pretrained.blocks.2.ls1/aten::mul/Multiply" type="Add" version="opset1">
			<data auto_broadcast="numpy" />
			<input>
				<port id="0" precision="FP32">
					<dim>1</dim>
					<dim>1370</dim>
					<dim>384</dim>
				</port>
				<port id="1" precision="FP32">
					<dim>1</dim>
					<dim>1</dim>
					<dim>384</dim>
				</port>
			</input>
			<output>
				<port id="2" precision="FP32" names="386">
					<dim>1</dim>
					<dim>1370</dim>
					<dim>384</dim>
				</port>
			</output>
		</layer>
		<layer id="340" name="__module.pretrained.blocks.2/aten::add/Add" type="Add" version="opset1">
			<data auto_broadcast="numpy" />
			<input>
				<port id="0" precision="FP32">
					<dim>1</dim>
					<dim>1370</dim>
					<dim>384</dim>
				</port>
				<port id="1" precision="FP32">
					<dim>1</dim>
					<dim>1370</dim>
					<dim>384</dim>
				</port>
			</input>
			<output>
				<port id="2" precision="FP32" names="387,input.49">
					<dim>1</dim>
					<dim>1370</dim>
					<dim>384</dim>
				</port>
			</output>
		</layer>
		<layer id="341" name="__module.pretrained.blocks.2.norm2/aten::layer_norm/Constant" type="Const" version="opset1">
			<data element_type="i32" shape="1" offset="1281056" size="4" />
			<output>
				<port id="0" precision="I32">
					<dim>1</dim>
				</port>
			</output>
		</layer>
		<layer id="342" name="__module.pretrained.blocks.2.norm2/aten::layer_norm/MVN" type="MVN" version="opset6">
			<data eps="9.9999999747524271e-07" normalize_variance="true" eps_mode="INSIDE_SQRT" />
			<input>
				<port id="0" precision="FP32">
					<dim>1</dim>
					<dim>1370</dim>
					<dim>384</dim>
				</port>
				<port id="1" precision="I32">
					<dim>1</dim>
				</port>
			</input>
			<output>
				<port id="2" precision="FP32">
					<dim>1</dim>
					<dim>1370</dim>
					<dim>384</dim>
				</port>
			</output>
		</layer>
		<layer id="343" name="Constant_15370_compressed" type="Const" version="opset1">
			<data element_type="f16" shape="1, 1, 384" offset="5493090" size="768" />
			<output>
				<port id="0" precision="FP16">
					<dim>1</dim>
					<dim>1</dim>
					<dim>384</dim>
				</port>
			</output>
		</layer>
		<layer id="344" name="Constant_15370" type="Convert" version="opset1">
			<data destination_type="f32" />
			<rt_info>
				<attribute name="decompression" version="0" />
			</rt_info>
			<input>
				<port id="0" precision="FP16">
					<dim>1</dim>
					<dim>1</dim>
					<dim>384</dim>
				</port>
			</input>
			<output>
				<port id="1" precision="FP32">
					<dim>1</dim>
					<dim>1</dim>
					<dim>384</dim>
				</port>
			</output>
		</layer>
		<layer id="345" name="__module.pretrained.blocks.2.norm2/aten::layer_norm/Multiply" type="Multiply" version="opset1">
			<data auto_broadcast="numpy" />
			<input>
				<port id="0" precision="FP32">
					<dim>1</dim>
					<dim>1370</dim>
					<dim>384</dim>
				</port>
				<port id="1" precision="FP32">
					<dim>1</dim>
					<dim>1</dim>
					<dim>384</dim>
				</port>
			</input>
			<output>
				<port id="2" precision="FP32">
					<dim>1</dim>
					<dim>1370</dim>
					<dim>384</dim>
				</port>
			</output>
		</layer>
		<layer id="346" name="Constant_15371_compressed" type="Const" version="opset1">
			<data element_type="f16" shape="1, 1, 384" offset="5493858" size="768" />
			<output>
				<port id="0" precision="FP16">
					<dim>1</dim>
					<dim>1</dim>
					<dim>384</dim>
				</port>
			</output>
		</layer>
		<layer id="347" name="Constant_15371" type="Convert" version="opset1">
			<data destination_type="f32" />
			<rt_info>
				<attribute name="decompression" version="0" />
			</rt_info>
			<input>
				<port id="0" precision="FP16">
					<dim>1</dim>
					<dim>1</dim>
					<dim>384</dim>
				</port>
			</input>
			<output>
				<port id="1" precision="FP32">
					<dim>1</dim>
					<dim>1</dim>
					<dim>384</dim>
				</port>
			</output>
		</layer>
		<layer id="348" name="__module.pretrained.blocks.2.norm2/aten::layer_norm/Add" type="Add" version="opset1">
			<data auto_broadcast="numpy" />
			<input>
				<port id="0" precision="FP32">
					<dim>1</dim>
					<dim>1370</dim>
					<dim>384</dim>
				</port>
				<port id="1" precision="FP32">
					<dim>1</dim>
					<dim>1</dim>
					<dim>384</dim>
				</port>
			</input>
			<output>
				<port id="2" precision="FP32" names="391,input.51">
					<dim>1</dim>
					<dim>1370</dim>
					<dim>384</dim>
				</port>
			</output>
		</layer>
		<layer id="349" name="__module.pretrained.blocks.2.norm2/aten::layer_norm/Add_0_0/nncf_smooth_quant/scale" type="Const" version="opset1">
			<data element_type="f32" shape="1, 1, 384" offset="5494626" size="1536" />
			<output>
				<port id="0" precision="FP32">
					<dim>1</dim>
					<dim>1</dim>
					<dim>384</dim>
				</port>
			</output>
		</layer>
		<layer id="350" name="__module.pretrained.blocks.2.norm2/aten::layer_norm/Add_0_0/nncf_smooth_quant" type="Multiply" version="opset1">
			<data auto_broadcast="numpy" />
			<input>
				<port id="0" precision="FP32">
					<dim>1</dim>
					<dim>1370</dim>
					<dim>384</dim>
				</port>
				<port id="1" precision="FP32">
					<dim>1</dim>
					<dim>1</dim>
					<dim>384</dim>
				</port>
			</input>
			<output>
				<port id="2" precision="FP32">
					<dim>1</dim>
					<dim>1370</dim>
					<dim>384</dim>
				</port>
			</output>
		</layer>
		<layer id="351" name="__module.pretrained.blocks.2.norm2/aten::layer_norm/Add_0_0/nncf_smooth_quant/fq_output_0/input_low" type="Const" version="opset1">
			<data element_type="f32" shape="" offset="5496162" size="4" />
			<output>
				<port id="0" precision="FP32" />
			</output>
		</layer>
		<layer id="352" name="__module.pretrained.blocks.2.norm2/aten::layer_norm/Add_0_0/nncf_smooth_quant/fq_output_0/input_high" type="Const" version="opset1">
			<data element_type="f32" shape="" offset="5496166" size="4" />
			<output>
				<port id="0" precision="FP32" />
			</output>
		</layer>
		<layer id="353" name="__module.pretrained.blocks.2.norm2/aten::layer_norm/Add_0_0/nncf_smooth_quant/fq_output_0/output_low" type="Const" version="opset1">
			<data element_type="f32" shape="" offset="5496162" size="4" />
			<output>
				<port id="0" precision="FP32" />
			</output>
		</layer>
		<layer id="354" name="__module.pretrained.blocks.2.norm2/aten::layer_norm/Add_0_0/nncf_smooth_quant/fq_output_0/output_high" type="Const" version="opset1">
			<data element_type="f32" shape="" offset="5496166" size="4" />
			<output>
				<port id="0" precision="FP32" />
			</output>
		</layer>
		<layer id="355" name="__module.pretrained.blocks.2.norm2/aten::layer_norm/Add_0_0/nncf_smooth_quant/fq_output_0" type="FakeQuantize" version="opset1">
			<data levels="256" auto_broadcast="numpy" />
			<input>
				<port id="0" precision="FP32">
					<dim>1</dim>
					<dim>1370</dim>
					<dim>384</dim>
				</port>
				<port id="1" precision="FP32" />
				<port id="2" precision="FP32" />
				<port id="3" precision="FP32" />
				<port id="4" precision="FP32" />
			</input>
			<output>
				<port id="5" precision="FP32">
					<dim>1</dim>
					<dim>1370</dim>
					<dim>384</dim>
				</port>
			</output>
		</layer>
		<layer id="356" name="Constant_546504" type="Const" version="opset1">
			<data element_type="i8" shape="1536, 384" offset="5496170" size="589824" />
			<output>
				<port id="0" precision="I8">
					<dim>1536</dim>
					<dim>384</dim>
				</port>
			</output>
		</layer>
		<layer id="357" name="Convert_546505" type="Convert" version="opset1">
			<data destination_type="f32" />
			<input>
				<port id="0" precision="I8">
					<dim>1536</dim>
					<dim>384</dim>
				</port>
			</input>
			<output>
				<port id="1" precision="FP32">
					<dim>1536</dim>
					<dim>384</dim>
				</port>
			</output>
		</layer>
		<layer id="358" name="Constant_546506" type="Const" version="opset1">
			<data element_type="f32" shape="1536, 1" offset="6085994" size="6144" />
			<output>
				<port id="0" precision="FP32">
					<dim>1536</dim>
					<dim>1</dim>
				</port>
			</output>
		</layer>
		<layer id="359" name="__module.pretrained.blocks.2.mlp.fc1/aten::linear/MatMul/fq_weights_1" type="Multiply" version="opset1">
			<data auto_broadcast="numpy" />
			<input>
				<port id="0" precision="FP32">
					<dim>1536</dim>
					<dim>384</dim>
				</port>
				<port id="1" precision="FP32">
					<dim>1536</dim>
					<dim>1</dim>
				</port>
			</input>
			<output>
				<port id="2" precision="FP32">
					<dim>1536</dim>
					<dim>384</dim>
				</port>
			</output>
		</layer>
		<layer id="360" name="__module.pretrained.blocks.2.mlp.fc1/aten::linear/MatMul" type="MatMul" version="opset1">
			<data transpose_a="false" transpose_b="true" />
			<input>
				<port id="0" precision="FP32">
					<dim>1</dim>
					<dim>1370</dim>
					<dim>384</dim>
				</port>
				<port id="1" precision="FP32">
					<dim>1536</dim>
					<dim>384</dim>
				</port>
			</input>
			<output>
				<port id="2" precision="FP32">
					<dim>1</dim>
					<dim>1370</dim>
					<dim>1536</dim>
				</port>
			</output>
		</layer>
		<layer id="361" name="Constant_15372_compressed" type="Const" version="opset1">
			<data element_type="f16" shape="1, 1, 1536" offset="6092138" size="3072" />
			<output>
				<port id="0" precision="FP16">
					<dim>1</dim>
					<dim>1</dim>
					<dim>1536</dim>
				</port>
			</output>
		</layer>
		<layer id="362" name="Constant_15372" type="Convert" version="opset1">
			<data destination_type="f32" />
			<rt_info>
				<attribute name="decompression" version="0" />
			</rt_info>
			<input>
				<port id="0" precision="FP16">
					<dim>1</dim>
					<dim>1</dim>
					<dim>1536</dim>
				</port>
			</input>
			<output>
				<port id="1" precision="FP32">
					<dim>1</dim>
					<dim>1</dim>
					<dim>1536</dim>
				</port>
			</output>
		</layer>
		<layer id="363" name="__module.pretrained.blocks.2.mlp.fc1/aten::linear/Add" type="Add" version="opset1">
			<data auto_broadcast="numpy" />
			<input>
				<port id="0" precision="FP32">
					<dim>1</dim>
					<dim>1370</dim>
					<dim>1536</dim>
				</port>
				<port id="1" precision="FP32">
					<dim>1</dim>
					<dim>1</dim>
					<dim>1536</dim>
				</port>
			</input>
			<output>
				<port id="2" precision="FP32" names="398,input.53">
					<dim>1</dim>
					<dim>1370</dim>
					<dim>1536</dim>
				</port>
			</output>
		</layer>
		<layer id="364" name="__module.pretrained.blocks.2.mlp.act/aten::gelu/Gelu" type="Gelu" version="opset7">
			<data approximation_mode="ERF" />
			<input>
				<port id="0" precision="FP32">
					<dim>1</dim>
					<dim>1370</dim>
					<dim>1536</dim>
				</port>
			</input>
			<output>
				<port id="1" precision="FP32" names="399,input.55">
					<dim>1</dim>
					<dim>1370</dim>
					<dim>1536</dim>
				</port>
			</output>
		</layer>
		<layer id="365" name="__module.pretrained.blocks.2.mlp.act/aten::gelu/Gelu_0_0/nncf_smooth_quant/scale" type="Const" version="opset1">
			<data element_type="f32" shape="1, 1, 1536" offset="6095210" size="6144" />
			<output>
				<port id="0" precision="FP32">
					<dim>1</dim>
					<dim>1</dim>
					<dim>1536</dim>
				</port>
			</output>
		</layer>
		<layer id="366" name="__module.pretrained.blocks.2.mlp.act/aten::gelu/Gelu_0_0/nncf_smooth_quant" type="Multiply" version="opset1">
			<data auto_broadcast="numpy" />
			<input>
				<port id="0" precision="FP32">
					<dim>1</dim>
					<dim>1370</dim>
					<dim>1536</dim>
				</port>
				<port id="1" precision="FP32">
					<dim>1</dim>
					<dim>1</dim>
					<dim>1536</dim>
				</port>
			</input>
			<output>
				<port id="2" precision="FP32">
					<dim>1</dim>
					<dim>1370</dim>
					<dim>1536</dim>
				</port>
			</output>
		</layer>
		<layer id="367" name="__module.pretrained.blocks.2.mlp.act/aten::gelu/Gelu_0_0/nncf_smooth_quant/fq_output_0/input_low" type="Const" version="opset1">
			<data element_type="f32" shape="" offset="6101354" size="4" />
			<output>
				<port id="0" precision="FP32" />
			</output>
		</layer>
		<layer id="368" name="__module.pretrained.blocks.2.mlp.act/aten::gelu/Gelu_0_0/nncf_smooth_quant/fq_output_0/input_high" type="Const" version="opset1">
			<data element_type="f32" shape="" offset="6101358" size="4" />
			<output>
				<port id="0" precision="FP32" />
			</output>
		</layer>
		<layer id="369" name="__module.pretrained.blocks.2.mlp.act/aten::gelu/Gelu_0_0/nncf_smooth_quant/fq_output_0/output_low" type="Const" version="opset1">
			<data element_type="f32" shape="" offset="6101354" size="4" />
			<output>
				<port id="0" precision="FP32" />
			</output>
		</layer>
		<layer id="370" name="__module.pretrained.blocks.2.mlp.act/aten::gelu/Gelu_0_0/nncf_smooth_quant/fq_output_0/output_high" type="Const" version="opset1">
			<data element_type="f32" shape="" offset="6101358" size="4" />
			<output>
				<port id="0" precision="FP32" />
			</output>
		</layer>
		<layer id="371" name="__module.pretrained.blocks.2.mlp.act/aten::gelu/Gelu_0_0/nncf_smooth_quant/fq_output_0" type="FakeQuantize" version="opset1">
			<data levels="256" auto_broadcast="numpy" />
			<input>
				<port id="0" precision="FP32">
					<dim>1</dim>
					<dim>1370</dim>
					<dim>1536</dim>
				</port>
				<port id="1" precision="FP32" />
				<port id="2" precision="FP32" />
				<port id="3" precision="FP32" />
				<port id="4" precision="FP32" />
			</input>
			<output>
				<port id="5" precision="FP32">
					<dim>1</dim>
					<dim>1370</dim>
					<dim>1536</dim>
				</port>
			</output>
		</layer>
		<layer id="372" name="Constant_546509" type="Const" version="opset1">
			<data element_type="i8" shape="384, 1536" offset="6101362" size="589824" />
			<output>
				<port id="0" precision="I8">
					<dim>384</dim>
					<dim>1536</dim>
				</port>
			</output>
		</layer>
		<layer id="373" name="Convert_546510" type="Convert" version="opset1">
			<data destination_type="f32" />
			<input>
				<port id="0" precision="I8">
					<dim>384</dim>
					<dim>1536</dim>
				</port>
			</input>
			<output>
				<port id="1" precision="FP32">
					<dim>384</dim>
					<dim>1536</dim>
				</port>
			</output>
		</layer>
		<layer id="374" name="Constant_546511" type="Const" version="opset1">
			<data element_type="f32" shape="384, 1" offset="6691186" size="1536" />
			<output>
				<port id="0" precision="FP32">
					<dim>384</dim>
					<dim>1</dim>
				</port>
			</output>
		</layer>
		<layer id="375" name="Multiply_14894/fq_weights_1" type="Multiply" version="opset1">
			<data auto_broadcast="numpy" />
			<input>
				<port id="0" precision="FP32">
					<dim>384</dim>
					<dim>1536</dim>
				</port>
				<port id="1" precision="FP32">
					<dim>384</dim>
					<dim>1</dim>
				</port>
			</input>
			<output>
				<port id="2" precision="FP32">
					<dim>384</dim>
					<dim>1536</dim>
				</port>
			</output>
		</layer>
		<layer id="376" name="Multiply_14894" type="MatMul" version="opset1">
			<data transpose_a="false" transpose_b="true" />
			<input>
				<port id="0" precision="FP32">
					<dim>1</dim>
					<dim>1370</dim>
					<dim>1536</dim>
				</port>
				<port id="1" precision="FP32">
					<dim>384</dim>
					<dim>1536</dim>
				</port>
			</input>
			<output>
				<port id="2" precision="FP32">
					<dim>1</dim>
					<dim>1370</dim>
					<dim>384</dim>
				</port>
			</output>
		</layer>
		<layer id="377" name="Constant_15373_compressed" type="Const" version="opset1">
…
		<edge from-layer="1399" from-port="3" to-layer="1439" to-port="0" />
		<edge from-layer="1399" from-port="3" to-layer="1410" to-port="0" />
		<edge from-layer="1400" from-port="0" to-layer="1410" to-port="1" />
		<edge from-layer="1401" from-port="0" to-layer="1410" to-port="2" />
		<edge from-layer="1402" from-port="0" to-layer="1404" to-port="1" />
		<edge from-layer="1402" from-port="0" to-layer="1433" to-port="1" />
		<edge from-layer="1403" from-port="0" to-layer="1404" to-port="2" />
		<edge from-layer="1404" from-port="3" to-layer="1406" to-port="0" />
		<edge from-layer="1404" from-port="3" to-layer="1438" to-port="0" />
		<edge from-layer="1405" from-port="0" to-layer="1406" to-port="1" />
		<edge from-layer="1406" from-port="2" to-layer="1407" to-port="0" />
		<edge from-layer="1407" from-port="1" to-layer="1409" to-port="0" />
		<edge from-layer="1408" from-port="0" to-layer="1409" to-port="1" />
		<edge from-layer="1409" from-port="2" to-layer="1410" to-port="3" />
		<edge from-layer="1410" from-port="4" to-layer="1411" to-port="1" />
		<edge from-layer="1411" from-port="2" to-layer="1413" to-port="0" />
		<edge from-layer="1412" from-port="0" to-layer="1413" to-port="1" />
		<edge from-layer="1413" from-port="2" to-layer="1415" to-port="0" />
		<edge from-layer="1413" from-port="2" to-layer="1428" to-port="0" />
		<edge from-layer="1413" from-port="2" to-layer="1433" to-port="0" />
		<edge from-layer="1414" from-port="0" to-layer="1415" to-port="1" />
		<edge from-layer="1414" from-port="0" to-layer="1415" to-port="2" />
		<edge from-layer="1414" from-port="0" to-layer="1433" to-port="2" />
		<edge from-layer="1414" from-port="0" to-layer="1430" to-port="2" />
		<edge from-layer="1415" from-port="3" to-layer="1418" to-port="0" />
		<edge from-layer="1416" from-port="0" to-layer="1417" to-port="0" />
		<edge from-layer="1417" from-port="1" to-layer="1418" to-port="1" />
		<edge from-layer="1418" from-port="2" to-layer="1423" to-port="0" />
		<edge from-layer="1419" from-port="0" to-layer="1423" to-port="1" />
		<edge from-layer="1420" from-port="0" to-layer="1423" to-port="2" />
		<edge from-layer="1421" from-port="0" to-layer="1423" to-port="3" />
		<edge from-layer="1422" from-port="0" to-layer="1423" to-port="4" />
		<edge from-layer="1423" from-port="5" to-layer="1431" to-port="0" />
		<edge from-layer="1424" from-port="0" to-layer="1428" to-port="1" />
		<edge from-layer="1425" from-port="0" to-layer="1428" to-port="2" />
		<edge from-layer="1426" from-port="0" to-layer="1428" to-port="3" />
		<edge from-layer="1427" from-port="0" to-layer="1428" to-port="4" />
		<edge from-layer="1428" from-port="5" to-layer="1430" to-port="0" />
		<edge from-layer="1429" from-port="0" to-layer="1430" to-port="1" />
		<edge from-layer="1430" from-port="3" to-layer="1431" to-port="1" />
		<edge from-layer="1431" from-port="2" to-layer="1432" to-port="0" />
		<edge from-layer="1432" from-port="1" to-layer="1434" to-port="0" />
		<edge from-layer="1433" from-port="3" to-layer="1434" to-port="1" />
		<edge from-layer="1434" from-port="2" to-layer="1436" to-port="0" />
		<edge from-layer="1435" from-port="0" to-layer="1436" to-port="1" />
		<edge from-layer="1436" from-port="2" to-layer="1440" to-port="0" />
		<edge from-layer="1437" from-port="0" to-layer="1438" to-port="1" />
		<edge from-layer="1438" from-port="2" to-layer="1439" to-port="1" />
		<edge from-layer="1439" from-port="2" to-layer="1440" to-port="1" />
		<edge from-layer="1440" from-port="2" to-layer="1442" to-port="0" />
		<edge from-layer="1441" from-port="0" to-layer="1442" to-port="1" />
		<edge from-layer="1442" from-port="2" to-layer="1447" to-port="0" />
		<edge from-layer="1443" from-port="0" to-layer="1447" to-port="1" />
		<edge from-layer="1444" from-port="0" to-layer="1447" to-port="2" />
		<edge from-layer="1445" from-port="0" to-layer="1447" to-port="3" />
		<edge from-layer="1446" from-port="0" to-layer="1447" to-port="4" />
		<edge from-layer="1447" from-port="5" to-layer="1452" to-port="0" />
		<edge from-layer="1448" from-port="0" to-layer="1449" to-port="0" />
		<edge from-layer="1449" from-port="1" to-layer="1451" to-port="0" />
		<edge from-layer="1450" from-port="0" to-layer="1451" to-port="1" />
		<edge from-layer="1451" from-port="2" to-layer="1452" to-port="1" />
		<edge from-layer="1452" from-port="2" to-layer="1455" to-port="0" />
		<edge from-layer="1453" from-port="0" to-layer="1454" to-port="0" />
		<edge from-layer="1454" from-port="1" to-layer="1455" to-port="1" />
		<edge from-layer="1455" from-port="2" to-layer="1456" to-port="1" />
		<edge from-layer="1456" from-port="2" to-layer="1496" to-port="0" />
		<edge from-layer="1456" from-port="2" to-layer="1458" to-port="0" />
		<edge from-layer="1457" from-port="0" to-layer="1458" to-port="1" />
		<edge from-layer="1458" from-port="2" to-layer="1461" to-port="0" />
		<edge from-layer="1459" from-port="0" to-layer="1460" to-port="0" />
		<edge from-layer="1460" from-port="1" to-layer="1461" to-port="1" />
		<edge from-layer="1461" from-port="2" to-layer="1464" to-port="0" />
		<edge from-layer="1462" from-port="0" to-layer="1463" to-port="0" />
		<edge from-layer="1463" from-port="1" to-layer="1464" to-port="1" />
		<edge from-layer="1464" from-port="2" to-layer="1466" to-port="0" />
		<edge from-layer="1465" from-port="0" to-layer="1466" to-port="1" />
		<edge from-layer="1466" from-port="2" to-layer="1471" to-port="0" />
		<edge from-layer="1467" from-port="0" to-layer="1471" to-port="1" />
		<edge from-layer="1468" from-port="0" to-layer="1471" to-port="2" />
		<edge from-layer="1469" from-port="0" to-layer="1471" to-port="3" />
		<edge from-layer="1470" from-port="0" to-layer="1471" to-port="4" />
		<edge from-layer="1471" from-port="5" to-layer="1476" to-port="0" />
		<edge from-layer="1472" from-port="0" to-layer="1473" to-port="0" />
		<edge from-layer="1473" from-port="1" to-layer="1475" to-port="0" />
		<edge from-layer="1474" from-port="0" to-layer="1475" to-port="1" />
		<edge from-layer="1475" from-port="2" to-layer="1476" to-port="1" />
		<edge from-layer="1476" from-port="2" to-layer="1479" to-port="0" />
		<edge from-layer="1477" from-port="0" to-layer="1478" to-port="0" />
		<edge from-layer="1478" from-port="1" to-layer="1479" to-port="1" />
		<edge from-layer="1479" from-port="2" to-layer="1480" to-port="0" />
		<edge from-layer="1480" from-port="1" to-layer="1482" to-port="0" />
		<edge from-layer="1481" from-port="0" to-layer="1482" to-port="1" />
		<edge from-layer="1482" from-port="2" to-layer="1487" to-port="0" />
		<edge from-layer="1483" from-port="0" to-layer="1487" to-port="1" />
		<edge from-layer="1484" from-port="0" to-layer="1487" to-port="2" />
		<edge from-layer="1485" from-port="0" to-layer="1487" to-port="3" />
		<edge from-layer="1486" from-port="0" to-layer="1487" to-port="4" />
		<edge from-layer="1487" from-port="5" to-layer="1492" to-port="0" />
		<edge from-layer="1488" from-port="0" to-layer="1489" to-port="0" />
		<edge from-layer="1489" from-port="1" to-layer="1491" to-port="0" />
		<edge from-layer="1490" from-port="0" to-layer="1491" to-port="1" />
		<edge from-layer="1491" from-port="2" to-layer="1492" to-port="1" />
		<edge from-layer="1492" from-port="2" to-layer="1495" to-port="0" />
		<edge from-layer="1493" from-port="0" to-layer="1494" to-port="0" />
		<edge from-layer="1494" from-port="1" to-layer="1495" to-port="1" />
		<edge from-layer="1495" from-port="2" to-layer="1496" to-port="1" />
		<edge from-layer="1496" from-port="2" to-layer="1498" to-port="0" />
		<edge from-layer="1497" from-port="0" to-layer="1498" to-port="1" />
		<edge from-layer="1498" from-port="2" to-layer="1501" to-port="0" />
		<edge from-layer="1499" from-port="0" to-layer="1500" to-port="0" />
		<edge from-layer="1500" from-port="1" to-layer="1501" to-port="1" />
		<edge from-layer="1501" from-port="2" to-layer="1504" to-port="0" />
		<edge from-layer="1502" from-port="0" to-layer="1503" to-port="0" />
		<edge from-layer="1503" from-port="1" to-layer="1504" to-port="1" />
		<edge from-layer="1504" from-port="2" to-layer="1509" to-port="0" />
		<edge from-layer="1505" from-port="0" to-layer="1509" to-port="1" />
		<edge from-layer="1506" from-port="0" to-layer="1509" to-port="2" />
		<edge from-layer="1507" from-port="0" to-layer="1509" to-port="3" />
		<edge from-layer="1508" from-port="0" to-layer="1509" to-port="4" />
		<edge from-layer="1509" from-port="5" to-layer="1513" to-port="0" />
		<edge from-layer="1510" from-port="0" to-layer="1513" to-port="1" />
		<edge from-layer="1511" from-port="0" to-layer="1513" to-port="2" />
		<edge from-layer="1512" from-port="0" to-layer="1513" to-port="3" />
		<edge from-layer="1513" from-port="4" to-layer="1515" to-port="0" />
		<edge from-layer="1513" from-port="4" to-layer="1516" to-port="0" />
		<edge from-layer="1514" from-port="0" to-layer="1515" to-port="1" />
		<edge from-layer="1515" from-port="2" to-layer="1523" to-port="0" />
		<edge from-layer="1516" from-port="1" to-layer="1519" to-port="0" />
		<edge from-layer="1517" from-port="0" to-layer="1519" to-port="1" />
		<edge from-layer="1518" from-port="0" to-layer="1519" to-port="2" />
		<edge from-layer="1519" from-port="3" to-layer="1522" to-port="0" />
		<edge from-layer="1520" from-port="0" to-layer="1522" to-port="1" />
		<edge from-layer="1521" from-port="0" to-layer="1522" to-port="2" />
		<edge from-layer="1522" from-port="3" to-layer="1523" to-port="1" />
		<edge from-layer="1523" from-port="2" to-layer="1528" to-port="0" />
		<edge from-layer="1524" from-port="0" to-layer="1525" to-port="0" />
		<edge from-layer="1525" from-port="1" to-layer="1527" to-port="0" />
		<edge from-layer="1526" from-port="0" to-layer="1527" to-port="1" />
		<edge from-layer="1527" from-port="2" to-layer="1528" to-port="1" />
		<edge from-layer="1528" from-port="2" to-layer="1531" to-port="0" />
		<edge from-layer="1529" from-port="0" to-layer="1530" to-port="0" />
		<edge from-layer="1530" from-port="1" to-layer="1531" to-port="1" />
		<edge from-layer="1531" from-port="2" to-layer="1536" to-port="0" />
		<edge from-layer="1532" from-port="0" to-layer="1536" to-port="1" />
		<edge from-layer="1533" from-port="0" to-layer="1536" to-port="2" />
		<edge from-layer="1534" from-port="0" to-layer="1536" to-port="3" />
		<edge from-layer="1535" from-port="0" to-layer="1536" to-port="4" />
		<edge from-layer="1536" from-port="5" to-layer="1541" to-port="0" />
		<edge from-layer="1537" from-port="0" to-layer="1538" to-port="0" />
		<edge from-layer="1538" from-port="1" to-layer="1540" to-port="0" />
		<edge from-layer="1539" from-port="0" to-layer="1540" to-port="1" />
		<edge from-layer="1540" from-port="2" to-layer="1541" to-port="1" />
		<edge from-layer="1541" from-port="2" to-layer="1544" to-port="0" />
		<edge from-layer="1542" from-port="0" to-layer="1543" to-port="0" />
		<edge from-layer="1543" from-port="1" to-layer="1544" to-port="1" />
		<edge from-layer="1544" from-port="2" to-layer="1549" to-port="0" />
		<edge from-layer="1545" from-port="0" to-layer="1549" to-port="1" />
		<edge from-layer="1546" from-port="0" to-layer="1549" to-port="2" />
		<edge from-layer="1547" from-port="0" to-layer="1549" to-port="3" />
		<edge from-layer="1548" from-port="0" to-layer="1549" to-port="4" />
		<edge from-layer="1549" from-port="5" to-layer="1554" to-port="0" />
		<edge from-layer="1550" from-port="0" to-layer="1551" to-port="0" />
		<edge from-layer="1551" from-port="1" to-layer="1553" to-port="0" />
		<edge from-layer="1552" from-port="0" to-layer="1553" to-port="1" />
		<edge from-layer="1553" from-port="2" to-layer="1554" to-port="1" />
		<edge from-layer="1554" from-port="2" to-layer="1583" to-port="1" />
		<edge from-layer="1554" from-port="2" to-layer="1555" to-port="0" />
		<edge from-layer="1555" from-port="1" to-layer="1560" to-port="0" />
		<edge from-layer="1556" from-port="0" to-layer="1560" to-port="1" />
		<edge from-layer="1557" from-port="0" to-layer="1560" to-port="2" />
		<edge from-layer="1558" from-port="0" to-layer="1560" to-port="3" />
		<edge from-layer="1559" from-port="0" to-layer="1560" to-port="4" />
		<edge from-layer="1560" from-port="5" to-layer="1565" to-port="0" />
		<edge from-layer="1561" from-port="0" to-layer="1562" to-port="0" />
		<edge from-layer="1562" from-port="1" to-layer="1564" to-port="0" />
		<edge from-layer="1563" from-port="0" to-layer="1564" to-port="1" />
		<edge from-layer="1564" from-port="2" to-layer="1565" to-port="1" />
		<edge from-layer="1565" from-port="2" to-layer="1568" to-port="0" />
		<edge from-layer="1566" from-port="0" to-layer="1567" to-port="0" />
		<edge from-layer="1567" from-port="1" to-layer="1568" to-port="1" />
		<edge from-layer="1568" from-port="2" to-layer="1569" to-port="0" />
		<edge from-layer="1569" from-port="1" to-layer="1574" to-port="0" />
		<edge from-layer="1570" from-port="0" to-layer="1574" to-port="1" />
		<edge from-layer="1571" from-port="0" to-layer="1574" to-port="2" />
		<edge from-layer="1572" from-port="0" to-layer="1574" to-port="3" />
		<edge from-layer="1573" from-port="0" to-layer="1574" to-port="4" />
		<edge from-layer="1574" from-port="5" to-layer="1579" to-port="0" />
		<edge from-layer="1575" from-port="0" to-layer="1576" to-port="0" />
		<edge from-layer="1576" from-port="1" to-layer="1578" to-port="0" />
		<edge from-layer="1577" from-port="0" to-layer="1578" to-port="1" />
		<edge from-layer="1578" from-port="2" to-layer="1579" to-port="1" />
		<edge from-layer="1579" from-port="2" to-layer="1582" to-port="0" />
		<edge from-layer="1580" from-port="0" to-layer="1581" to-port="0" />
		<edge from-layer="1581" from-port="1" to-layer="1582" to-port="1" />
		<edge from-layer="1582" from-port="2" to-layer="1583" to-port="0" />
		<edge from-layer="1583" from-port="2" to-layer="1588" to-port="0" />
		<edge from-layer="1584" from-port="0" to-layer="1588" to-port="1" />
		<edge from-layer="1585" from-port="0" to-layer="1588" to-port="2" />
		<edge from-layer="1586" from-port="0" to-layer="1588" to-port="3" />
		<edge from-layer="1587" from-port="0" to-layer="1588" to-port="4" />
		<edge from-layer="1588" from-port="5" to-layer="1638" to-port="0" />
		<edge from-layer="1589" from-port="0" to-layer="1590" to-port="0" />
		<edge from-layer="1590" from-port="1" to-layer="1591" to-port="1" />
		<edge from-layer="1591" from-port="2" to-layer="1594" to-port="0" />
		<edge from-layer="1592" from-port="0" to-layer="1593" to-port="0" />
		<edge from-layer="1593" from-port="1" to-layer="1594" to-port="1" />
		<edge from-layer="1594" from-port="2" to-layer="1599" to-port="0" />
		<edge from-layer="1595" from-port="0" to-layer="1599" to-port="1" />
		<edge from-layer="1596" from-port="0" to-layer="1599" to-port="2" />
		<edge from-layer="1597" from-port="0" to-layer="1599" to-port="3" />
		<edge from-layer="1598" from-port="0" to-layer="1599" to-port="4" />
		<edge from-layer="1599" from-port="5" to-layer="1603" to-port="0" />
		<edge from-layer="1600" from-port="0" to-layer="1603" to-port="1" />
		<edge from-layer="1601" from-port="0" to-layer="1603" to-port="2" />
		<edge from-layer="1602" from-port="0" to-layer="1603" to-port="3" />
		<edge from-layer="1603" from-port="4" to-layer="1605" to-port="0" />
		<edge from-layer="1603" from-port="4" to-layer="1606" to-port="0" />
		<edge from-layer="1604" from-port="0" to-layer="1605" to-port="1" />
		<edge from-layer="1605" from-port="2" to-layer="1613" to-port="0" />
		<edge from-layer="1606" from-port="1" to-layer="1609" to-port="0" />
		<edge from-layer="1607" from-port="0" to-layer="1609" to-port="1" />
		<edge from-layer="1608" from-port="0" to-layer="1609" to-port="2" />
		<edge from-layer="1609" from-port="3" to-layer="1612" to-port="0" />
		<edge from-layer="1610" from-port="0" to-layer="1612" to-port="1" />
		<edge from-layer="1611" from-port="0" to-layer="1612" to-port="2" />
		<edge from-layer="1612" from-port="3" to-layer="1613" to-port="1" />
		<edge from-layer="1613" from-port="2" to-layer="1618" to-port="0" />
		<edge from-layer="1614" from-port="0" to-layer="1615" to-port="0" />
		<edge from-layer="1615" from-port="1" to-layer="1617" to-port="0" />
		<edge from-layer="1616" from-port="0" to-layer="1617" to-port="1" />
		<edge from-layer="1617" from-port="2" to-layer="1618" to-port="1" />
		<edge from-layer="1618" from-port="2" to-layer="1621" to-port="0" />
		<edge from-layer="1619" from-port="0" to-layer="1620" to-port="0" />
		<edge from-layer="1620" from-port="1" to-layer="1621" to-port="1" />
		<edge from-layer="1621" from-port="2" to-layer="1626" to-port="0" />
		<edge from-layer="1622" from-port="0" to-layer="1626" to-port="1" />
		<edge from-layer="1623" from-port="0" to-layer="1626" to-port="2" />
		<edge from-layer="1624" from-port="0" to-layer="1626" to-port="3" />
		<edge from-layer="1625" from-port="0" to-layer="1626" to-port="4" />
		<edge from-layer="1626" from-port="5" to-layer="1631" to-port="0" />
		<edge from-layer="1627" from-port="0" to-layer="1628" to-port="0" />
		<edge from-layer="1628" from-port="1" to-layer="1630" to-port="0" />
		<edge from-layer="1629" from-port="0" to-layer="1630" to-port="1" />
		<edge from-layer="1630" from-port="2" to-layer="1631" to-port="1" />
		<edge from-layer="1631" from-port="2" to-layer="1652" to-port="0" />
		<edge from-layer="1631" from-port="2" to-layer="1680" to-port="1" />
		<edge from-layer="1631" from-port="2" to-layer="1632" to-port="0" />
		<edge from-layer="1632" from-port="1" to-layer="1635" to-port="0" />
		<edge from-layer="1633" from-port="0" to-layer="1635" to-port="1" />
		<edge from-layer="1634" from-port="0" to-layer="1635" to-port="2" />
		<edge from-layer="1635" from-port="3" to-layer="1636" to-port="0" />
		<edge from-layer="1636" from-port="1" to-layer="1638" to-port="1" />
		<edge from-layer="1637" from-port="0" to-layer="1638" to-port="2" />
		<edge from-layer="1638" from-port="3" to-layer="1643" to-port="0" />
		<edge from-layer="1639" from-port="0" to-layer="1643" to-port="1" />
		<edge from-layer="1640" from-port="0" to-layer="1643" to-port="2" />
		<edge from-layer="1641" from-port="0" to-layer="1643" to-port="3" />
		<edge from-layer="1642" from-port="0" to-layer="1643" to-port="4" />
		<edge from-layer="1643" from-port="5" to-layer="1648" to-port="0" />
		<edge from-layer="1644" from-port="0" to-layer="1645" to-port="0" />
		<edge from-layer="1645" from-port="1" to-layer="1647" to-port="0" />
		<edge from-layer="1646" from-port="0" to-layer="1647" to-port="1" />
		<edge from-layer="1647" from-port="2" to-layer="1648" to-port="1" />
		<edge from-layer="1648" from-port="2" to-layer="1651" to-port="0" />
		<edge from-layer="1649" from-port="0" to-layer="1650" to-port="0" />
		<edge from-layer="1650" from-port="1" to-layer="1651" to-port="1" />
		<edge from-layer="1651" from-port="2" to-layer="1681" to-port="0" />
		<edge from-layer="1652" from-port="1" to-layer="1657" to-port="0" />
		<edge from-layer="1653" from-port="0" to-layer="1657" to-port="1" />
		<edge from-layer="1654" from-port="0" to-layer="1657" to-port="2" />
		<edge from-layer="1655" from-port="0" to-layer="1657" to-port="3" />
		<edge from-layer="1656" from-port="0" to-layer="1657" to-port="4" />
		<edge from-layer="1657" from-port="5" to-layer="1662" to-port="0" />
		<edge from-layer="1658" from-port="0" to-layer="1659" to-port="0" />
		<edge from-layer="1659" from-port="1" to-layer="1661" to-port="0" />
		<edge from-layer="1660" from-port="0" to-layer="1661" to-port="1" />
		<edge from-layer="1661" from-port="2" to-layer="1662" to-port="1" />
		<edge from-layer="1662" from-port="2" to-layer="1665" to-port="0" />
		<edge from-layer="1663" from-port="0" to-layer="1664" to-port="0" />
		<edge from-layer="1664" from-port="1" to-layer="1665" to-port="1" />
		<edge from-layer="1665" from-port="2" to-layer="1666" to-port="0" />
		<edge from-layer="1666" from-port="1" to-layer="1671" to-port="0" />
		<edge from-layer="1667" from-port="0" to-layer="1671" to-port="1" />
		<edge from-layer="1668" from-port="0" to-layer="1671" to-port="2" />
		<edge from-layer="1669" from-port="0" to-layer="1671" to-port="3" />
		<edge from-layer="1670" from-port="0" to-layer="1671" to-port="4" />
		<edge from-layer="1671" from-port="5" to-layer="1676" to-port="0" />
		<edge from-layer="1672" from-port="0" to-layer="1673" to-port="0" />
		<edge from-layer="1673" from-port="1" to-layer="1675" to-port="0" />
		<edge from-layer="1674" from-port="0" to-layer="1675" to-port="1" />
		<edge from-layer="1675" from-port="2" to-layer="1676" to-port="1" />
		<edge from-layer="1676" from-port="2" to-layer="1679" to-port="0" />
		<edge from-layer="1677" from-port="0" to-layer="1678" to-port="0" />
		<edge from-layer="1678" from-port="1" to-layer="1679" to-port="1" />
		<edge from-layer="1679" from-port="2" to-layer="1680" to-port="0" />
		<edge from-layer="1680" from-port="2" to-layer="1681" to-port="1" />
		<edge from-layer="1681" from-port="2" to-layer="1710" to-port="1" />
		<edge from-layer="1681" from-port="2" to-layer="1682" to-port="0" />
		<edge from-layer="1682" from-port="1" to-layer="1687" to-port="0" />
		<edge from-layer="1683" from-port="0" to-layer="1687" to-port="1" />
		<edge from-layer="1684" from-port="0" to-layer="1687" to-port="2" />
		<edge from-layer="1685" from-port="0" to-layer="1687" to-port="3" />
		<edge from-layer="1686" from-port="0" to-layer="1687" to-port="4" />
		<edge from-layer="1687" from-port="5" to-layer="1692" to-port="0" />
		<edge from-layer="1688" from-port="0" to-layer="1689" to-port="0" />
		<edge from-layer="1689" from-port="1" to-layer="1691" to-port="0" />
		<edge from-layer="1690" from-port="0" to-layer="1691" to-port="1" />
		<edge from-layer="1691" from-port="2" to-layer="1692" to-port="1" />
		<edge from-layer="1692" from-port="2" to-layer="1695" to-port="0" />
		<edge from-layer="1693" from-port="0" to-layer="1694" to-port="0" />
		<edge from-layer="1694" from-port="1" to-layer="1695" to-port="1" />
		<edge from-layer="1695" from-port="2" to-layer="1696" to-port="0" />
		<edge from-layer="1696" from-port="1" to-layer="1701" to-port="0" />
		<edge from-layer="1697" from-port="0" to-layer="1701" to-port="1" />
		<edge from-layer="1698" from-port="0" to-layer="1701" to-port="2" />
		<edge from-layer="1699" from-port="0" to-layer="1701" to-port="3" />
		<edge from-layer="1700" from-port="0" to-layer="1701" to-port="4" />
		<edge from-layer="1701" from-port="5" to-layer="1706" to-port="0" />
		<edge from-layer="1702" from-port="0" to-layer="1703" to-port="0" />
		<edge from-layer="1703" from-port="1" to-layer="1705" to-port="0" />
		<edge from-layer="1704" from-port="0" to-layer="1705" to-port="1" />
		<edge from-layer="1705" from-port="2" to-layer="1706" to-port="1" />
		<edge from-layer="1706" from-port="2" to-layer="1709" to-port="0" />
		<edge from-layer="1707" from-port="0" to-layer="1708" to-port="0" />
		<edge from-layer="1708" from-port="1" to-layer="1709" to-port="1" />
		<edge from-layer="1709" from-port="2" to-layer="1710" to-port="0" />
		<edge from-layer="1710" from-port="2" to-layer="1715" to-port="0" />
		<edge from-layer="1711" from-port="0" to-layer="1715" to-port="1" />
		<edge from-layer="1712" from-port="0" to-layer="1715" to-port="2" />
		<edge from-layer="1713" from-port="0" to-layer="1715" to-port="3" />
		<edge from-layer="1714" from-port="0" to-layer="1715" to-port="4" />
		<edge from-layer="1715" from-port="5" to-layer="1778" to-port="0" />
		<edge from-layer="1716" from-port="0" to-layer="1717" to-port="0" />
		<edge from-layer="1717" from-port="1" to-layer="1718" to-port="1" />
		<edge from-layer="1718" from-port="2" to-layer="1721" to-port="0" />
		<edge from-layer="1719" from-port="0" to-layer="1720" to-port="0" />
		<edge from-layer="1720" from-port="1" to-layer="1721" to-port="1" />
		<edge from-layer="1721" from-port="2" to-layer="1726" to-port="0" />
		<edge from-layer="1722" from-port="0" to-layer="1726" to-port="1" />
		<edge from-layer="1723" from-port="0" to-layer="1726" to-port="2" />
		<edge from-layer="1724" from-port="0" to-layer="1726" to-port="3" />
		<edge from-layer="1725" from-port="0" to-layer="1726" to-port="4" />
		<edge from-layer="1726" from-port="5" to-layer="1730" to-port="0" />
		<edge from-layer="1727" from-port="0" to-layer="1730" to-port="1" />
		<edge from-layer="1728" from-port="0" to-layer="1730" to-port="2" />
		<edge from-layer="1729" from-port="0" to-layer="1730" to-port="3" />
		<edge from-layer="1730" from-port="4" to-layer="1732" to-port="0" />
		<edge from-layer="1730" from-port="4" to-layer="1733" to-port="0" />
		<edge from-layer="1731" from-port="0" to-layer="1732" to-port="1" />
		<edge from-layer="1732" from-port="2" to-layer="1740" to-port="0" />
		<edge from-layer="1733" from-port="1" to-layer="1736" to-port="0" />
		<edge from-layer="1734" from-port="0" to-layer="1736" to-port="1" />
		<edge from-layer="1735" from-port="0" to-layer="1736" to-port="2" />
		<edge from-layer="1736" from-port="3" to-layer="1739" to-port="0" />
		<edge from-layer="1737" from-port="0" to-layer="1739" to-port="1" />
		<edge from-layer="1738" from-port="0" to-layer="1739" to-port="2" />
		<edge from-layer="1739" from-port="3" to-layer="1740" to-port="1" />
		<edge from-layer="1740" from-port="2" to-layer="1745" to-port="0" />
		<edge from-layer="1741" from-port="0" to-layer="1742" to-port="0" />
		<edge from-layer="1742" from-port="1" to-layer="1744" to-port="0" />
		<edge from-layer="1743" from-port="0" to-layer="1744" to-port="1" />
		<edge from-layer="1744" from-port="2" to-layer="1745" to-port="1" />
		<edge from-layer="1745" from-port="2" to-layer="1748" to-port="0" />
		<edge from-layer="1746" from-port="0" to-layer="1747" to-port="0" />
		<edge from-layer="1747" from-port="1" to-layer="1748" to-port="1" />
		<edge from-layer="1748" from-port="2" to-layer="1753" to-port="0" />
		<edge from-layer="1749" from-port="0" to-layer="1753" to-port="1" />
		<edge from-layer="1750" from-port="0" to-layer="1753" to-port="2" />
		<edge from-layer="1751" from-port="0" to-layer="1753" to-port="3" />
		<edge from-layer="1752" from-port="0" to-layer="1753" to-port="4" />
		<edge from-layer="1753" from-port="5" to-layer="1758" to-port="0" />
		<edge from-layer="1754" from-port="0" to-layer="1755" to-port="0" />
		<edge from-layer="1755" from-port="1" to-layer="1757" to-port="0" />
		<edge from-layer="1756" from-port="0" to-layer="1757" to-port="1" />
		<edge from-layer="1757" from-port="2" to-layer="1758" to-port="1" />
		<edge from-layer="1758" from-port="2" to-layer="1761" to-port="0" />
		<edge from-layer="1759" from-port="0" to-layer="1760" to-port="0" />
		<edge from-layer="1760" from-port="1" to-layer="1761" to-port="1" />
		<edge from-layer="1761" from-port="2" to-layer="1766" to-port="0" />
		<edge from-layer="1762" from-port="0" to-layer="1766" to-port="1" />
		<edge from-layer="1763" from-port="0" to-layer="1766" to-port="2" />
		<edge from-layer="1764" from-port="0" to-layer="1766" to-port="3" />
		<edge from-layer="1765" from-port="0" to-layer="1766" to-port="4" />
		<edge from-layer="1766" from-port="5" to-layer="1771" to-port="0" />
		<edge from-layer="1767" from-port="0" to-layer="1768" to-port="0" />
		<edge from-layer="1768" from-port="1" to-layer="1770" to-port="0" />
		<edge from-layer="1769" from-port="0" to-layer="1770" to-port="1" />
		<edge from-layer="1770" from-port="2" to-layer="1771" to-port="1" />
		<edge from-layer="1771" from-port="2" to-layer="1820" to-port="1" />
		<edge from-layer="1771" from-port="2" to-layer="1772" to-port="0" />
		<edge from-layer="1771" from-port="2" to-layer="1792" to-port="0" />
		<edge from-layer="1772" from-port="1" to-layer="1775" to-port="0" />
		<edge from-layer="1773" from-port="0" to-layer="1775" to-port="1" />
		<edge from-layer="1774" from-port="0" to-layer="1775" to-port="2" />
		<edge from-layer="1775" from-port="3" to-layer="1776" to-port="0" />
		<edge from-layer="1776" from-port="1" to-layer="1778" to-port="1" />
		<edge from-layer="1777" from-port="0" to-layer="1778" to-port="2" />
		<edge from-layer="1778" from-port="3" to-layer="1783" to-port="0" />
		<edge from-layer="1779" from-port="0" to-layer="1783" to-port="1" />
		<edge from-layer="1780" from-port="0" to-layer="1783" to-port="2" />
		<edge from-layer="1781" from-port="0" to-layer="1783" to-port="3" />
		<edge from-layer="1782" from-port="0" to-layer="1783" to-port="4" />
		<edge from-layer="1783" from-port="5" to-layer="1788" to-port="0" />
		<edge from-layer="1784" from-port="0" to-layer="1785" to-port="0" />
		<edge from-layer="1785" from-port="1" to-layer="1787" to-port="0" />
		<edge from-layer="1786" from-port="0" to-layer="1787" to-port="1" />
		<edge from-layer="1787" from-port="2" to-layer="1788" to-port="1" />
		<edge from-layer="1788" from-port="2" to-layer="1791" to-port="0" />
		<edge from-layer="1789" from-port="0" to-layer="1790" to-port="0" />
		<edge from-layer="1790" from-port="1" to-layer="1791" to-port="1" />
		<edge from-layer="1791" from-port="2" to-layer="1821" to-port="0" />
		<edge from-layer="1792" from-port="1" to-layer="1797" to-port="0" />
		<edge from-layer="1793" from-port="0" to-layer="1797" to-port="1" />
		<edge from-layer="1794" from-port="0" to-layer="1797" to-port="2" />
		<edge from-layer="1795" from-port="0" to-layer="1797" to-port="3" />
		<edge from-layer="1796" from-port="0" to-layer="1797" to-port="4" />
		<edge from-layer="1797" from-port="5" to-layer="1802" to-port="0" />
		<edge from-layer="1798" from-port="0" to-layer="1799" to-port="0" />
		<edge from-layer="1799" from-port="1" to-layer="1801" to-port="0" />
		<edge from-layer="1800" from-port="0" to-layer="1801" to-port="1" />
		<edge from-layer="1801" from-port="2" to-layer="1802" to-port="1" />
		<edge from-layer="1802" from-port="2" to-layer="1805" to-port="0" />
		<edge from-layer="1803" from-port="0" to-layer="1804" to-port="0" />
		<edge from-layer="1804" from-port="1" to-layer="1805" to-port="1" />
		<edge from-layer="1805" from-port="2" to-layer="1806" to-port="0" />
		<edge from-layer="1806" from-port="1" to-layer="1811" to-port="0" />
		<edge from-layer="1807" from-port="0" to-layer="1811" to-port="1" />
		<edge from-layer="1808" from-port="0" to-layer="1811" to-port="2" />
		<edge from-layer="1809" from-port="0" to-layer="1811" to-port="3" />
		<edge from-layer="1810" from-port="0" to-layer="1811" to-port="4" />
		<edge from-layer="1811" from-port="5" to-layer="1816" to-port="0" />
		<edge from-layer="1812" from-port="0" to-layer="1813" to-port="0" />
		<edge from-layer="1813" from-port="1" to-layer="1815" to-port="0" />
		<edge from-layer="1814" from-port="0" to-layer="1815" to-port="1" />
		<edge from-layer="1815" from-port="2" to-layer="1816" to-port="1" />
		<edge from-layer="1816" from-port="2" to-layer="1819" to-port="0" />
		<edge from-layer="1817" from-port="0" to-layer="1818" to-port="0" />
		<edge from-layer="1818" from-port="1" to-layer="1819" to-port="1" />
		<edge from-layer="1819" from-port="2" to-layer="1820" to-port="0" />
		<edge from-layer="1820" from-port="2" to-layer="1821" to-port="1" />
		<edge from-layer="1821" from-port="2" to-layer="1850" to-port="1" />
		<edge from-layer="1821" from-port="2" to-layer="1822" to-port="0" />
		<edge from-layer="1822" from-port="1" to-layer="1827" to-port="0" />
		<edge from-layer="1823" from-port="0" to-layer="1827" to-port="1" />
		<edge from-layer="1824" from-port="0" to-layer="1827" to-port="2" />
		<edge from-layer="1825" from-port="0" to-layer="1827" to-port="3" />
		<edge from-layer="1826" from-port="0" to-layer="1827" to-port="4" />
		<edge from-layer="1827" from-port="5" to-layer="1832" to-port="0" />
		<edge from-layer="1828" from-port="0" to-layer="1829" to-port="0" />
		<edge from-layer="1829" from-port="1" to-layer="1831" to-port="0" />
		<edge from-layer="1830" from-port="0" to-layer="1831" to-port="1" />
		<edge from-layer="1831" from-port="2" to-layer="1832" to-port="1" />
		<edge from-layer="1832" from-port="2" to-layer="1835" to-port="0" />
		<edge from-layer="1833" from-port="0" to-layer="1834" to-port="0" />
		<edge from-layer="1834" from-port="1" to-layer="1835" to-port="1" />
		<edge from-layer="1835" from-port="2" to-layer="1836" to-port="0" />
		<edge from-layer="1836" from-port="1" to-layer="1841" to-port="0" />
		<edge from-layer="1837" from-port="0" to-layer="1841" to-port="1" />
		<edge from-layer="1838" from-port="0" to-layer="1841" to-port="2" />
		<edge from-layer="1839" from-port="0" to-layer="1841" to-port="3" />
		<edge from-layer="1840" from-port="0" to-layer="1841" to-port="4" />
		<edge from-layer="1841" from-port="5" to-layer="1846" to-port="0" />
		<edge from-layer="1842" from-port="0" to-layer="1843" to-port="0" />
		<edge from-layer="1843" from-port="1" to-layer="1845" to-port="0" />
		<edge from-layer="1844" from-port="0" to-layer="1845" to-port="1" />
		<edge from-layer="1845" from-port="2" to-layer="1846" to-port="1" />
		<edge from-layer="1846" from-port="2" to-layer="1849" to-port="0" />
		<edge from-layer="1847" from-port="0" to-layer="1848" to-port="0" />
		<edge from-layer="1848" from-port="1" to-layer="1849" to-port="1" />
		<edge from-layer="1849" from-port="2" to-layer="1850" to-port="0" />
		<edge from-layer="1850" from-port="2" to-layer="1855" to-port="0" />
		<edge from-layer="1851" from-port="0" to-layer="1855" to-port="1" />
		<edge from-layer="1852" from-port="0" to-layer="1855" to-port="2" />
		<edge from-layer="1853" from-port="0" to-layer="1855" to-port="3" />
		<edge from-layer="1854" from-port="0" to-layer="1855" to-port="4" />
		<edge from-layer="1855" from-port="5" to-layer="1918" to-port="0" />
		<edge from-layer="1856" from-port="0" to-layer="1857" to-port="0" />
		<edge from-layer="1857" from-port="1" to-layer="1858" to-port="1" />
		<edge from-layer="1858" from-port="2" to-layer="1861" to-port="0" />
		<edge from-layer="1859" from-port="0" to-layer="1860" to-port="0" />
		<edge from-layer="1860" from-port="1" to-layer="1861" to-port="1" />
		<edge from-layer="1861" from-port="2" to-layer="1866" to-port="0" />
		<edge from-layer="1862" from-port="0" to-layer="1866" to-port="1" />
		<edge from-layer="1863" from-port="0" to-layer="1866" to-port="2" />
		<edge from-layer="1864" from-port="0" to-layer="1866" to-port="3" />
		<edge from-layer="1865" from-port="0" to-layer="1866" to-port="4" />
		<edge from-layer="1866" from-port="5" to-layer="1870" to-port="0" />
		<edge from-layer="1867" from-port="0" to-layer="1870" to-port="1" />
		<edge from-layer="1868" from-port="0" to-layer="1870" to-port="2" />
		<edge from-layer="1869" from-port="0" to-layer="1870" to-port="3" />
		<edge from-layer="1870" from-port="4" to-layer="1873" to-port="0" />
		<edge from-layer="1870" from-port="4" to-layer="1872" to-port="0" />
		<edge from-layer="1871" from-port="0" to-layer="1872" to-port="1" />
		<edge from-layer="1872" from-port="2" to-layer="1880" to-port="0" />
		<edge from-layer="1873" from-port="1" to-layer="1876" to-port="0" />
		<edge from-layer="1874" from-port="0" to-layer="1876" to-port="1" />
		<edge from-layer="1875" from-port="0" to-layer="1876" to-port="2" />
		<edge from-layer="1876" from-port="3" to-layer="1879" to-port="0" />
		<edge from-layer="1877" from-port="0" to-layer="1879" to-port="1" />
		<edge from-layer="1878" from-port="0" to-layer="1879" to-port="2" />
		<edge from-layer="1879" from-port="3" to-layer="1880" to-port="1" />
		<edge from-layer="1880" from-port="2" to-layer="1885" to-port="0" />
		<edge from-layer="1881" from-port="0" to-layer="1882" to-port="0" />
		<edge from-layer="1882" from-port="1" to-layer="1884" to-port="0" />
		<edge from-layer="1883" from-port="0" to-layer="1884" to-port="1" />
		<edge from-layer="1884" from-port="2" to-layer="1885" to-port="1" />
		<edge from-layer="1885" from-port="2" to-layer="1888" to-port="0" />
		<edge from-layer="1886" from-port="0" to-layer="1887" to-port="0" />
		<edge from-layer="1887" from-port="1" to-layer="1888" to-port="1" />
		<edge from-layer="1888" from-port="2" to-layer="1893" to-port="0" />
		<edge from-layer="1889" from-port="0" to-layer="1893" to-port="1" />
		<edge from-layer="1890" from-port="0" to-layer="1893" to-port="2" />
		<edge from-layer="1891" from-port="0" to-layer="1893" to-port="3" />
		<edge from-layer="1892" from-port="0" to-layer="1893" to-port="4" />
		<edge from-layer="1893" from-port="5" to-layer="1898" to-port="0" />
		<edge from-layer="1894" from-port="0" to-layer="1895" to-port="0" />
		<edge from-layer="1895" from-port="1" to-layer="1897" to-port="0" />
		<edge from-layer="1896" from-port="0" to-layer="1897" to-port="1" />
		<edge from-layer="1897" from-port="2" to-layer="1898" to-port="1" />
		<edge from-layer="1898" from-port="2" to-layer="1901" to-port="0" />
		<edge from-layer="1899" from-port="0" to-layer="1900" to-port="0" />
		<edge from-layer="1900" from-port="1" to-layer="1901" to-port="1" />
		<edge from-layer="1901" from-port="2" to-layer="1906" to-port="0" />
		<edge from-layer="1902" from-port="0" to-layer="1906" to-port="1" />
		<edge from-layer="1903" from-port="0" to-layer="1906" to-port="2" />
		<edge from-layer="1904" from-port="0" to-layer="1906" to-port="3" />
		<edge from-layer="1905" from-port="0" to-layer="1906" to-port="4" />
		<edge from-layer="1906" from-port="5" to-layer="1911" to-port="0" />
		<edge from-layer="1907" from-port="0" to-layer="1908" to-port="0" />
		<edge from-layer="1908" from-port="1" to-layer="1910" to-port="0" />
		<edge from-layer="1909" from-port="0" to-layer="1910" to-port="1" />
		<edge from-layer="1910" from-port="2" to-layer="1911" to-port="1" />
		<edge from-layer="1911" from-port="2" to-layer="1960" to-port="1" />
		<edge from-layer="1911" from-port="2" to-layer="1932" to-port="0" />
		<edge from-layer="1911" from-port="2" to-layer="1912" to-port="0" />
		<edge from-layer="1912" from-port="1" to-layer="1915" to-port="0" />
		<edge from-layer="1913" from-port="0" to-layer="1915" to-port="1" />
		<edge from-layer="1914" from-port="0" to-layer="1915" to-port="2" />
		<edge from-layer="1915" from-port="3" to-layer="1916" to-port="0" />
		<edge from-layer="1916" from-port="1" to-layer="1918" to-port="1" />
		<edge from-layer="1917" from-port="0" to-layer="1918" to-port="2" />
		<edge from-layer="1918" from-port="3" to-layer="1923" to-port="0" />
		<edge from-layer="1919" from-port="0" to-layer="1923" to-port="1" />
		<edge from-layer="1920" from-port="0" to-layer="1923" to-port="2" />
		<edge from-layer="1921" from-port="0" to-layer="1923" to-port="3" />
		<edge from-layer="1922" from-port="0" to-layer="1923" to-port="4" />
		<edge from-layer="1923" from-port="5" to-layer="1928" to-port="0" />
		<edge from-layer="1924" from-port="0" to-layer="1925" to-port="0" />
		<edge from-layer="1925" from-port="1" to-layer="1927" to-port="0" />
		<edge from-layer="1926" from-port="0" to-layer="1927" to-port="1" />
		<edge from-layer="1927" from-port="2" to-layer="1928" to-port="1" />
		<edge from-layer="1928" from-port="2" to-layer="1931" to-port="0" />
		<edge from-layer="1929" from-port="0" to-layer="1930" to-port="0" />
		<edge from-layer="1930" from-port="1" to-layer="1931" to-port="1" />
		<edge from-layer="1931" from-port="2" to-layer="1961" to-port="0" />
		<edge from-layer="1932" from-port="1" to-layer="1937" to-port="0" />
		<edge from-layer="1933" from-port="0" to-layer="1937" to-port="1" />
		<edge from-layer="1934" from-port="0" to-layer="1937" to-port="2" />
		<edge from-layer="1935" from-port="0" to-layer="1937" to-port="3" />
		<edge from-layer="1936" from-port="0" to-layer="1937" to-port="4" />
		<edge from-layer="1937" from-port="5" to-layer="1942" to-port="0" />
		<edge from-layer="1938" from-port="0" to-layer="1939" to-port="0" />
		<edge from-layer="1939" from-port="1" to-layer="1941" to-port="0" />
		<edge from-layer="1940" from-port="0" to-layer="1941" to-port="1" />
		<edge from-layer="1941" from-port="2" to-layer="1942" to-port="1" />
		<edge from-layer="1942" from-port="2" to-layer="1945" to-port="0" />
		<edge from-layer="1943" from-port="0" to-layer="1944" to-port="0" />
		<edge from-layer="1944" from-port="1" to-layer="1945" to-port="1" />
		<edge from-layer="1945" from-port="2" to-layer="1946" to-port="0" />
		<edge from-layer="1946" from-port="1" to-layer="1951" to-port="0" />
		<edge from-layer="1947" from-port="0" to-layer="1951" to-port="1" />
		<edge from-layer="1948" from-port="0" to-layer="1951" to-port="2" />
		<edge from-layer="1949" from-port="0" to-layer="1951" to-port="3" />
		<edge from-layer="1950" from-port="0" to-layer="1951" to-port="4" />
		<edge from-layer="1951" from-port="5" to-layer="1956" to-port="0" />
		<edge from-layer="1952" from-port="0" to-layer="1953" to-port="0" />
		<edge from-layer="1953" from-port="1" to-layer="1955" to-port="0" />
		<edge from-layer="1954" from-port="0" to-layer="1955" to-port="1" />
		<edge from-layer="1955" from-port="2" to-layer="1956" to-port="1" />
		<edge from-layer="1956" from-port="2" to-layer="1959" to-port="0" />
		<edge from-layer="1957" from-port="0" to-layer="1958" to-port="0" />
		<edge from-layer="1958" from-port="1" to-layer="1959" to-port="1" />
		<edge from-layer="1959" from-port="2" to-layer="1960" to-port="0" />
		<edge from-layer="1960" from-port="2" to-layer="1961" to-port="1" />
		<edge from-layer="1961" from-port="2" to-layer="1962" to-port="0" />
		<edge from-layer="1961" from-port="2" to-layer="1990" to-port="1" />
		<edge from-layer="1962" from-port="1" to-layer="1967" to-port="0" />
		<edge from-layer="1963" from-port="0" to-layer="1967" to-port="1" />
		<edge from-layer="1964" from-port="0" to-layer="1967" to-port="2" />
		<edge from-layer="1965" from-port="0" to-layer="1967" to-port="3" />
		<edge from-layer="1966" from-port="0" to-layer="1967" to-port="4" />
		<edge from-layer="1967" from-port="5" to-layer="1972" to-port="0" />
		<edge from-layer="1968" from-port="0" to-layer="1969" to-port="0" />
		<edge from-layer="1969" from-port="1" to-layer="1971" to-port="0" />
		<edge from-layer="1970" from-port="0" to-layer="1971" to-port="1" />
		<edge from-layer="1971" from-port="2" to-layer="1972" to-port="1" />
		<edge from-layer="1972" from-port="2" to-layer="1975" to-port="0" />
		<edge from-layer="1973" from-port="0" to-layer="1974" to-port="0" />
		<edge from-layer="1974" from-port="1" to-layer="1975" to-port="1" />
		<edge from-layer="1975" from-port="2" to-layer="1976" to-port="0" />
		<edge from-layer="1976" from-port="1" to-layer="1981" to-port="0" />
		<edge from-layer="1977" from-port="0" to-layer="1981" to-port="1" />
		<edge from-layer="1978" from-port="0" to-layer="1981" to-port="2" />
		<edge from-layer="1979" from-port="0" to-layer="1981" to-port="3" />
		<edge from-layer="1980" from-port="0" to-layer="1981" to-port="4" />
		<edge from-layer="1981" from-port="5" to-layer="1986" to-port="0" />
		<edge from-layer="1982" from-port="0" to-layer="1983" to-port="0" />
		<edge from-layer="1983" from-port="1" to-layer="1985" to-port="0" />
		<edge from-layer="1984" from-port="0" to-layer="1985" to-port="1" />
		<edge from-layer="1985" from-port="2" to-layer="1986" to-port="1" />
		<edge from-layer="1986" from-port="2" to-layer="1989" to-port="0" />
		<edge from-layer="1987" from-port="0" to-layer="1988" to-port="0" />
		<edge from-layer="1988" from-port="1" to-layer="1989" to-port="1" />
		<edge from-layer="1989" from-port="2" to-layer="1990" to-port="0" />
		<edge from-layer="1990" from-port="2" to-layer="1995" to-port="0" />
		<edge from-layer="1991" from-port="0" to-layer="1995" to-port="1" />
		<edge from-layer="1992" from-port="0" to-layer="1995" to-port="2" />
		<edge from-layer="1993" from-port="0" to-layer="1995" to-port="3" />
		<edge from-layer="1994" from-port="0" to-layer="1995" to-port="4" />
		<edge from-layer="1995" from-port="5" to-layer="1998" to-port="0" />
		<edge from-layer="1996" from-port="0" to-layer="1998" to-port="1" />
		<edge from-layer="1997" from-port="0" to-layer="1998" to-port="2" />
		<edge from-layer="1998" from-port="3" to-layer="2003" to-port="0" />
		<edge from-layer="1999" from-port="0" to-layer="2003" to-port="1" />
		<edge from-layer="2000" from-port="0" to-layer="2003" to-port="2" />
		<edge from-layer="2001" from-port="0" to-layer="2003" to-port="3" />
		<edge from-layer="2002" from-port="0" to-layer="2003" to-port="4" />
		<edge from-layer="2003" from-port="5" to-layer="2008" to-port="0" />
		<edge from-layer="2004" from-port="0" to-layer="2005" to-port="0" />
		<edge from-layer="2005" from-port="1" to-layer="2007" to-port="0" />
		<edge from-layer="2006" from-port="0" to-layer="2007" to-port="1" />
		<edge from-layer="2007" from-port="2" to-layer="2008" to-port="1" />
		<edge from-layer="2008" from-port="2" to-layer="2011" to-port="0" />
		<edge from-layer="2009" from-port="0" to-layer="2010" to-port="0" />
		<edge from-layer="2010" from-port="1" to-layer="2011" to-port="1" />
		<edge from-layer="2011" from-port="2" to-layer="2016" to-port="0" />
		<edge from-layer="2012" from-port="0" to-layer="2016" to-port="1" />
		<edge from-layer="2013" from-port="0" to-layer="2016" to-port="2" />
		<edge from-layer="2014" from-port="0" to-layer="2016" to-port="3" />
		<edge from-layer="2015" from-port="0" to-layer="2016" to-port="4" />
		<edge from-layer="2016" from-port="5" to-layer="2021" to-port="0" />
		<edge from-layer="2017" from-port="0" to-layer="2018" to-port="0" />
		<edge from-layer="2018" from-port="1" to-layer="2020" to-port="0" />
		<edge from-layer="2019" from-port="0" to-layer="2020" to-port="1" />
		<edge from-layer="2020" from-port="2" to-layer="2021" to-port="1" />
		<edge from-layer="2021" from-port="2" to-layer="2024" to-port="0" />
		<edge from-layer="2022" from-port="0" to-layer="2023" to-port="0" />
		<edge from-layer="2023" from-port="1" to-layer="2024" to-port="1" />
		<edge from-layer="2024" from-port="2" to-layer="2029" to-port="0" />
		<edge from-layer="2025" from-port="0" to-layer="2029" to-port="1" />
		<edge from-layer="2026" from-port="0" to-layer="2029" to-port="2" />
		<edge from-layer="2027" from-port="0" to-layer="2029" to-port="3" />
		<edge from-layer="2028" from-port="0" to-layer="2029" to-port="4" />
		<edge from-layer="2029" from-port="5" to-layer="2032" to-port="0" />
		<edge from-layer="2030" from-port="0" to-layer="2032" to-port="1" />
		<edge from-layer="2031" from-port="0" to-layer="2032" to-port="2" />
		<edge from-layer="2032" from-port="3" to-layer="2037" to-port="0" />
		<edge from-layer="2033" from-port="0" to-layer="2037" to-port="1" />
		<edge from-layer="2034" from-port="0" to-layer="2037" to-port="2" />
		<edge from-layer="2035" from-port="0" to-layer="2037" to-port="3" />
		<edge from-layer="2036" from-port="0" to-layer="2037" to-port="4" />
		<edge from-layer="2037" from-port="5" to-layer="2042" to-port="0" />
		<edge from-layer="2038" from-port="0" to-layer="2039" to-port="0" />
		<edge from-layer="2039" from-port="1" to-layer="2041" to-port="0" />
		<edge from-layer="2040" from-port="0" to-layer="2041" to-port="1" />
		<edge from-layer="2041" from-port="2" to-layer="2042" to-port="1" />
		<edge from-layer="2042" from-port="2" to-layer="2045" to-port="0" />
		<edge from-layer="2043" from-port="0" to-layer="2044" to-port="0" />
		<edge from-layer="2044" from-port="1" to-layer="2045" to-port="1" />
		<edge from-layer="2045" from-port="2" to-layer="2046" to-port="0" />
		<edge from-layer="2046" from-port="1" to-layer="2051" to-port="0" />
		<edge from-layer="2047" from-port="0" to-layer="2051" to-port="1" />
		<edge from-layer="2048" from-port="0" to-layer="2051" to-port="2" />
		<edge from-layer="2049" from-port="0" to-layer="2051" to-port="3" />
		<edge from-layer="2050" from-port="0" to-layer="2051" to-port="4" />
		<edge from-layer="2051" from-port="5" to-layer="2056" to-port="0" />
		<edge from-layer="2052" from-port="0" to-layer="2053" to-port="0" />
		<edge from-layer="2053" from-port="1" to-layer="2055" to-port="0" />
		<edge from-layer="2054" from-port="0" to-layer="2055" to-port="1" />
		<edge from-layer="2055" from-port="2" to-layer="2056" to-port="1" />
		<edge from-layer="2056" from-port="2" to-layer="2059" to-port="0" />
		<edge from-layer="2057" from-port="0" to-layer="2058" to-port="0" />
		<edge from-layer="2058" from-port="1" to-layer="2059" to-port="1" />
		<edge from-layer="2059" from-port="2" to-layer="2060" to-port="0" />
		<edge from-layer="2060" from-port="1" to-layer="2065" to-port="0" />
		<edge from-layer="2061" from-port="0" to-layer="2065" to-port="1" />
		<edge from-layer="2062" from-port="0" to-layer="2065" to-port="2" />
		<edge from-layer="2063" from-port="0" to-layer="2065" to-port="3" />
		<edge from-layer="2064" from-port="0" to-layer="2065" to-port="4" />
		<edge from-layer="2065" from-port="5" to-layer="2068" to-port="0" />
		<edge from-layer="2066" from-port="0" to-layer="2068" to-port="1" />
		<edge from-layer="2067" from-port="0" to-layer="2068" to-port="2" />
		<edge from-layer="2068" from-port="3" to-layer="2069" to-port="0" />
		<edge from-layer="2069" from-port="1" to-layer="2071" to-port="0" />
		<edge from-layer="2070" from-port="0" to-layer="2071" to-port="1" />
		<edge from-layer="2071" from-port="2" to-layer="2072" to-port="0" />
	</edges>
	<rt_info>
		<Runtime_version value="2024.1.0-15008-f4afc983258-releases/2024/1" />
		<conversion_parameters>
			<framework value="pytorch" />
			<is_python_object value="True" />
		</conversion_parameters>
		<nncf>
			<friendly_names_were_updated value="True" />
			<quantization>
				<advanced_parameters value="{}" />
				<fast_bias_correction value="True" />
				<ignored_scope value="None" />
				<model_type value="transformer" />
				<preset value="None" />
				<subset_size value="300" />
				<target_device value="ANY" />
			</quantization>
		</nncf>
	</rt_info>
</net>
